lightning_logs/version_0/checkpoints/epoch=38-step=8385.ckpt (torch, 281624 bytes, 30 tensors)

conv1.weight f4 [8, 1, 5, 5]
0	0x3c495bba	0.012289936
1	0xbe3f3619	-0.1867298
2	0xbd5bf6ce	-0.05370217
3	0x3df3a85e	0.11897348
4	0xbdeeafb9	-0.1165461
5	0x3daa40ac	0.083131164
6	0xbeb9097d	-0.3614005
7	0xbeb0185f	-0.34393594
8	0xbec22a63	-0.37922964
9	0xbe9e3620	-0.3090067
10	0xbd3a5ff9	-0.045501683
11	0xbe39f579	-0.18160047
12	0xbd5f0c38	-0.054455012
13	0xbdf6ef10	-0.12057316
14	0xbdbeb651	-0.09312118
15	0x3e89ad11	0.26889852
16	0x3e6fc37b	0.23414414
17	0x3df3daa4	0.11906937
18	0x3dab3e75	0.08361522
19	0x3e81bd32	0.25339657
20	0x3ebb4fb1	0.36584237
21	0x3ed84ad6	0.42244595
22	0x3e855ace	0.2604584
23	0x3eced76c	0.4039873
24	0x3e9300b7	0.28711483
25	0xbe405f48	-0.18786347
26	0x3e229819	0.15878333
27	0x3e192276	0.14954552
28	0x3e9ea0ed	0.30982152
29	0x3e891c4b	0.26779398
30	0x3bc89d25	0.0061222487
31	0x3c790a5b	0.015200223
32	0xbcc822d7	-0.024430675
33	0x3e8187da	0.2529896
34	0x3e54ed4d	0.20793648
35	0x3d7332eb	0.05937473
36	0xbdc63376	-0.09677784
37	0x3e97a311	0.29616597
38	0x3ebe93af	0.3722205
39	0x3e935188	0.2877314
40	0xbd6f83fd	-0.058475483
41	0x3e28ea2c	0.1649558
42	0x3ea45101	0.3209305
43	0x3eaf34f0	0.34220076
44	0x3e8ffb26	0.281213
45	0x3e17a646	0.14809522
46	0x3e7bf342	0.24604514
47	0x3cf1abcb	0.029500863
48	0xbd1c3564	-0.038136855
49	0x3e4c5d78	0.1995753
50	0x3db6e564	0.089304715
51	0x3e56222b	0.20911472
52	0xbb35330f	-0.0027648841
53	0x3e0cfe2c	0.13768834
54	0xbe1018ac	-0.14071912
55	0x3def899f	0.11696171
56	0x3e629d32	0.22130278
57	0x3b9ea7a3	0.004841761
58	0xbe57ab66	-0.21061477
59	0xbdfbbf70	-0.12292373
60	0x3e95ab0f	0.2923207
61	0x3e8bc5c1	0.27299312
62	0x3e9b985a	0.30389673
63	0xbc8457b2	-0.016155098
64	0xbe05b0bb	-0.13055699
65	0x3e6dbbf7	0.23216234
66	0x3e12dddf	0.1434245
67	0x3e50671e	0.20351836
68	0xbe3ae938	-0.18253028
69	0xbe1d936b	-0.15388267
70	0x3d9b70fe	0.07589911
71	0x3dd9e6d8	0.10639733
72	0x3d64479d	0.05573236
73	0xbe2b16c2	-0.167079
74	0xbd8ef12a	-0.06979592
75	0x3e373aee	0.17893574
76	0x3d830dde	0.06399129
77	0x3df55d57	0.11980694
78	0xbdedb63b	-0.11607023
79	0xbd2b6459	-0.041843746
80	0x3e36726a	0.17817083
81	0x3e90bede	0.2827062
82	0x3e56a02d	0.2095954
83	0x3dbad9a5	0.09123544
84	0x3d8659fe	0.065601334
85	0xbbb806bc	-0.005616037
86	0x3e0eeea7	0.13958226
87	0x3e810869	0.2520173
88	0x3e46d7f6	0.1941832
89	0x3e122564	0.14272076
90	0xbd06bfea	-0.032897867
91	0x3dbb5f75	0.09149066
92	0x3e9cd56d	0.3063158
93	0x3e58d3ab	0.21174495
94	0x3d32db33	0.043666076
95	0x3dff1d10	0.12456715
96	0xbd102735	-0.03519364
97	0x3e91f6e9	0.2850869
98	0x3cf2f6c2	0.029658679
99	0x3e9b3d5f	0.3032026
100	0xbd0e5879	-0.034752343
101	0xbe7d0ba4	-0.24711472
102	0xbd8a32a7	-0.067479424
103	0x3e340408	0.17579663
104	0x3e6412c5	0.22272785
105	0x3c5430f7	0.012951127
106	0xbd232282	-0.03982783
107	0x3e15e6db	0.14638846
108	0x3eba8dea	0.36436397
109	0x3e178053	0.14795046
110	0x3e80b76d	0.25139943
111	0x3ea34e71	0.31895784
112	0x3e61838b	0.22022836
113	0x3e8edc18	0.27902293
114	0x3d4ab79d	0.049491514
115	0x3e9285c0	0.28617668
116	0x3e8e900b	0.2784427
117	0x3d661d7d	0.056180466
118	0x3a81aa5e	0.0009892692
119	0x3e2f2583	0.17104153
120	0xbddf973d	-0.10917518
121	0xbe000805	-0.12503059
122	0xbdc302e8	-0.09522039
123	0x3e3f8316	0.18702349
124	0xbe03c728	-0.12868941
125	0xbe7e1990	-0.24814439
126	0xbdaf03e9	-0.08545668
127	0x3e735f9b	0.2376694
128	0x3eb93e7d	0.36180487
129	0x3eabaf79	0.33532313
130	0x3dd4af79	0.10385031
131	0x3eb9d048	0.36291718
132	0x3e39ecc6	0.18156728
133	0x3e9c1548	0.30484986
134	0x3dc48575	0.095957674
135	0x3dabee51	0.083950646
136	0x3d0aa837	0.03385183
137	0x3e8bc9ed	0.27302495
138	0x3db65f49	0.08904893
139	0x3dd6221e	0.10455726
140	0xbb2e2634	-0.0026573064
141	0x3e9f880d	0.31158486
142	0x3e419dfa	0.1890792
143	0xbdff0b07	-0.12453275
144	0xbe3adac4	-0.18247515
145	0xbd23f0a3	-0.04002441
146	0x3e1d235f	0.15345524
147	0xbdcdc5cd	-0.10047493
148	0xbe311350	-0.17292523
149	0x3d1fff95	0.0390621
150	0x3de82862	0.113358274
151	0x3e5b56cb	0.21419828
152	0x3e86b592	0.26310402
153	0x3e6990b8	0.22809112
154	0xbd5d9d6d	-0.05410521
155	0x3db1852f	0.08667981
156	0x3c3b585c	0.011434641
157	0x3eb54ea2	0.35411555
158	0x3c6fec79	0.014643782
159	0x3e19881d	0.1499333
160	0x3da0df19	0.078550525
161	0x3e8d1177	0.27552387
162	0x3ec3a903	0.38214883
163	0x3e09d674	0.13460714
164	0x3c3d3584	0.011548404
165	0xbe2d5b7a	-0.16929427
166	0xbd6f9657	-0.058492985
167	0x3e6cede2	0.2313762
168	0x3e78ea1d	0.24308057
169	0x3e022437	0.12709127
170	0xbd9b3a22	-0.07579447
171	0x3d52c560	0.051457763
172	0xba83b787	-0.0010049202
173	0x3ea202df	0.31642815
174	0x3eabd5bc	0.33561504
175	0xbd1581f3	-0.036500882
176	0x3e78114b	0.24225347
177	0x3e00b953	0.12570696
178	0x3e60a992	0.21939686
179	0x3dbfd064	0.09365919
180	0x3e9a4b35	0.30135503
181	0x3dfa177c	0.122115105
182	0x3e9c80b4	0.30566943
183	0x3d3dc6a3	0.046332013
184	0xbca931f2	-0.020653699
185	0x3db21c1a	0.08696766
186	0x3e8e8972	0.27839237
187	0x3d955ec5	0.072934665
188	0x3e9a9851	0.30194333
189	0x3e9dd39e	0.30825514
190	0xbe443b15	-0.19163163
191	0xbe2a4843	-0.16629128
192	0xbc885426	-0.016641688
193	0xbdc539e1	-0.0963018
194	0x3e08c04a	0.13354602
195	0xbe030118	-0.12793386
196	0xbeb26022	-0.3483897
197	0xbd8d261c	-0.068920344
198	0xbea153bd	-0.315092
199	0xbd885e07	-0.06658559

conv1.bias f4 [8]
0	0x3db80ee8	0.08987218
1	0xbc9f03e5	-0.019411037
2	0x3d64b7d1	0.055839363
3	0x3e239efb	0.15978615
4	0x3b5513ff	0.003251314
5	0x3d601310	0.05470568
6	0x3b82a845	0.0039873444
7	0x3bc6a7b5	0.0060624727

conv2.weight f4 [16, 8, 5, 5]
0	0x3ccd30e1	0.025047721
1	0x3dd02d97	0.101649456
2	0x3dc131d3	0.09433331
3	0x3e03373a	0.12814036
4	0x3caf8cdf	0.021429477
5	0x3e1f95fe	0.15584561
6	0x3e1b6e6d	0.15178843
7	0x3e05167a	0.12996855
8	0x3e02be97	0.12768017
9	0x3cab6f98	0.020927235
10	0x3d81e59a	0.06342621
11	0xbd187b5f	-0.03722703
12	0x3ddab140	0.10678339
13	0x3db67d7a	0.089106515
14	0x3e13022f	0.14356302
15	0x3c425265	0.011860465
16	0x3d6e2805	0.058143634
17	0x3c5d632b	0.013512413
18	0xbcea2c7e	-0.028585669
19	0x3d949122	0.072542444
20	0x3de3e5ae	0.11127792
21	0x3de676f0	0.11253154
22	0xba3576f4	-0.00069223274
23	0xbd290516	-0.041264616
24	0xbe5b9e07	-0.21447001
25	0xbd47a5d7	-0.04874214
26	0xbdb2d4dc	-0.08732006
27	0xbd8ed411	-0.06974042
28	0xbdac2331	-0.0840515
29	0xbdea2dbf	-0.114345066
30	0x3b994cce	0.0046783453
31	0x3d19a0de	0.03750693
32	0xbd5dd364	-0.054156676
33	0xbda01432	-0.07816352
34	0xbdbe9283	-0.09305289
35	0x3ddf151c	0.10892698
36	0x3d8f010a	0.0698262
37	0x3cac2e65	0.021018216
38	0xbd7638f0	-0.060112894
39	0xbd909efe	-0.07061575
40	0x3c1b1bb0	0.00946705
41	0x3d1d5502	0.038411148
42	0xbc38c3dc	-0.011277165
43	0x3da9f53b	0.08298727
44	0x3d14719f	0.03624117
45	0xbe25ba0b	-0.16184251
46	0xbded4c9f	-0.1158688
47	0xbd87715a	-0.06613417
48	0x3d66add6	0.056318127
49	0xbd9ba509	-0.07599837
50	0xbc778194	-0.015106577
51	0xbd33872d	-0.043830086
52	0xbd82012f	-0.06347882
53	0xbe350dfa	-0.17681113
54	0xbd439aa2	-0.04775489
55	0xbd733973	-0.05938096
56	0x3c8e2ccd	0.017355347
57	0xbc5d33e3	-0.01350114
58	0x3d88ebbe	0.06685589
59	0x3cba05ad	0.022707785
60	0xbd34ab57	-0.044108715
61	0x3d36426e	0.044496946
62	0x3db01d2f	0.08599316
63	0x3da3ceb8	0.07998413
64	0x3bab87fe	0.0052347174
65	0xbcd91168	-0.026497558
66	0xbdcbdbc2	-0.09954025
67	0xbd8deae2	-0.06929566
68	0x3d8c47bd	0.068496205
69	0x3de6eace	0.11275254
70	0xbdea4640	-0.114391804
71	0xbe299f60	-0.16564703
72	0xbd1d36a2	-0.03838218
73	0xbd52ad12	-0.051434584
74	0xbd3c73dc	-0.04600893
75	0x3bc185fd	0.005905865
76	0x3d3c9062	0.04603613
77	0xbcc7d830	-0.024395078
78	0x3bd215e1	0.0064112996
79	0xbda3658e	-0.079783544
80	0x3d6bfa6f	0.05761188
81	0x3bfa8a54	0.0076458845
82	0x3cc45918	0.023968264
83	0x3d829006	0.063751265
84	0xbd0c5c39	-0.034267638
85	0x3bdef776	0.006804402
86	0x3dc57b10	0.09642613
87	0x3d572659	0.052526806
88	0x3da7bac3	0.08189919
89	0xbc943c28	-0.018095091
90	0x3cedea97	0.029042525
91	0xbdacd84a	-0.08439691
92	0x3d991cf0	0.074762225
93	0x3ded8303	0.11597254
94	0x3d7a4562	0.061101325
95	0xbd662efa	-0.056197144
96	0xbcc1d5a3	-0.02366144
97	0xbe13ad6c	-0.14421624
98	0x3c26eefa	0.010188812
99	0x3d7c9f15	0.06167515
100	0xbb12ca61	-0.002239846
101	0xbd26945a	-0.040668823
102	0xbe161254	-0.14655429
103	0xbd928c74	-0.071556956
104	0xbd8fa6c6	-0.070142314
105	0x3dd51ec0	0.10406256
106	0x3d0840e5	0.033265013
107	0x3d8e00c5	0.069337405
108	0x3c2df0c3	0.010616484
109	0x3d3ffd3a	0.046872355
110	0x3ddc2ac3	0.10750344
111	0x3e1a8167	0.15088426
112	0x3dfad100	0.12246895
113	0xbc807644	-0.015681393
114	0x3cea358f	0.028589992
115	0x3d842d25	0.06453923
116	0x3ce66101	0.028122427
117	0x3db8e2f6	0.09027664
118	0x3b5b1e3b	0.0033434767
119	0xbca49187	-0.020088924
120	0xbe14046c	-0.14454812
121	0xbd9b5014	-0.07583633
122	0xbcd2c721	-0.025729718
123	0xbcdff25b	-0.027337244
124	0x3d20373c	0.039115176
125	0xba178a0f	-0.0005780765
126	0xbcc00415	-0.023439446
127	0xbe160840	-0.14651585
128	0xbe004b8b	-0.12528817
129	0x3c816957	0.0157973
130	0x3d3d7723	0.046256196
131	0xbdc542df	-0.09631895
132	0xbd2a2c34	-0.04154606
133	0xbdda740d	-0.10666666
134	0xbcedab3c	-0.029012315
135	0xbb49a785	-0.0030770015
136	0x3e1098a3	0.14120726
137	0x3d7a2e7a	0.06107948
138	0x3d76b683	0.06023265
139	0xbe24fab1	-0.16111256
140	0x3c703c09	0.014662751
141	0x3d18d12d	0.03730886
142	0x3c7440e4	0.014908049
143	0x3da3bed9	0.07995386
144	0x3cff3df2	0.031157468
145	0xbd82632d	-0.063665725
146	0x3cc361c3	0.023850327
147	0x3cfe4dd2	0.031042967
148	0x3d810400	0.06299591
149	0xbacfafa5	-0.0015845193
150	0xbb907da6	-0.0044095097
151	0x3ca24fdb	0.019813469
152	0xbc7322cf	-0.014839842
153	0xbe2161bd	-0.1575994
154	0xbe0a27cb	-0.13491742
155	0x3d8e4ac9	0.06947858
156	0x3cf20a4f	0.029545931
157	0xbc3e179c	-0.011602309
158	0x3d629c5d	0.0553249
159	0xbbae59cc	-0.005320763
160	0xbc68c41a	-0.0142069105
161	0x3dc652dc	0.09683773
162	0x3e14b716	0.14522967
163	0x3ddab696	0.10679357
164	0xbd51c8a5	-0.05121674
165	0xbcc54f74	-0.024085738
166	0xbd0a7378	-0.033801526
167	0x3d81d4b9	0.06339402
168	0x3e04abdd	0.12956186
169	0x3d41086d	0.047127176
170	0xbc4ffd54	-0.0126946755
171	0xbe18a38c	-0.14906138
172	0xbddd7d5c	-0.10814926
173	0x3c88032e	0.016603079
174	0xbd1a7bbf	-0.03771567
175	0x3c775e86	0.01509822
176	0x3dd819e8	0.10551816
177	0xbdcdf4a3	-0.100564264
178	0xbd127a62	-0.035761245
179	0xbcc631d7	-0.024193687
180	0x3dcb4833	0.0992588
181	0x3c9ca9e2	0.019123975
182	0x3defb124	0.11703709
183	0x3db37da0	0.087641954
184	0xbcbfc67d	-0.023410076
185	0x3dffbfd7	0.124877624
186	0x3e1e2d44	0.15446955
187	0x3daf609d	0.085633494
188	0x3e01c235	0.1267174
189	0xbd09dd1a	-0.033658125
190	0x3dfac65b	0.122448646
191	0x3d98ffe4	0.07470682
192	0x3e373712	0.17892101
193	0x3dd3d52c	0.10343394
194	0x3dd204bc	0.10254809
195	0xbcabbe1c	-0.020964675
196	0x3c88fec0	0.016723037
197	0x3d10fb32	0.03539581
198	0x3dd5da4d	0.10442028
199	0x3dc3fed8	0.09570092
200	0x3db4a2f5	0.08820144
201	0x3e161dc6	0.14659795
202	0x3e4aa89b	0.1979088
203	0x3dacc0a8	0.08435184
204	0x3da06819	0.07832355
205	0xbcaeb889	-0.021328228
206	0xbd312ba0	-0.043254495
207	0x3d8be2f3	0.068303965
208	0x3da13449	0.07871301
209	0x3d6c6629	0.057714615
210	0x3d70ddff	0.058805462
211	0x3d5659fe	0.052331917
212	0xbd813e7b	-0.06310745
213	0xbd485cac	-0.048916504
214	0x3d402720	0.046912313
215	0x3e4013a2	0.1875749
216	0x3e42c1bd	0.19019218
217	0x3cf221dc	0.029557161
218	0xbdb941c4	-0.09045747
219	0xbdfcac82	-0.12337591
220	0x3db8463f	0.089977734
221	0x3dc19c6a	0.09453662
222	0x3d3e0b31	0.04639739
223	0xbd698be6	-0.057018183
224	0xbddef9e2	-0.10887505
225	0x3dbf7b28	0.09349662
226	0x3b1a7a9e	0.002357162
227	0xba7fcc74	-0.0009757944
228	0xbd4d8db0	-0.05018395
229	0xbdc184b9	-0.09449143
230	0x3bcf5cb0	0.006328188
231	0x3dbc74ef	0.09201991
232	0x3ca451b2	0.020058487
233	0x3d19b7c2	0.03752876
234	0xbdbed14e	-0.093172655
235	0x3d11caa2	0.035593636
236	0x3cf5e09b	0.030014327
237	0x3d844999	0.0645935
238	0x3d1a934f	0.03773814
239	0x3cc8046e	0.024416175
240	0xbc8c1a57	-0.017102404
241	0xbde93896	-0.11387746
242	0x3d18becb	0.03729133
243	0x3d7d993f	0.061913725
244	0x3dae19a2	0.08500983
245	0xbd557965	-0.052117724
246	0x3bccb202	0.006246806
247	0xbca76d74	-0.020437934
248	0x3ccf5a9c	0.02531176
249	0xbdaebde2	-0.08532311
250	0xbd9c6436	-0.07636301
251	0xbdaccc0e	-0.08437358
252	0xb857950f	-5.1398816e-05
253	0xbd30829c	-0.04309331
254	0xbd80c13f	-0.06286859
255	0xbda00acd	-0.0781456

conv2.bias f4 [16]
0	0xbd71af86	-0.059005283
1	0xbcfc8a28	-0.030827597
2	0x3df27e36	0.11840479
3	0x3d80076e	0.06251417
4	0x3d837017	0.06417864
5	0x3d5e329a	0.054247476
6	0xbd0a3ba6	-0.03374829
7	0xbd69b904	-0.05706121
8	0xbd345b0a	-0.044032134
9	0x3cbf0f48	0.023322716
10	0x3c88ad6f	0.016684262
11	0x3b7cceaf	0.0038575341
12	0x3d2adc63	0.041714083
13	0x3d862971	0.06550873
14	0x3d997678	0.07493299
15	0x3dd74d5c	0.10512802

fc1.weight f4 [64, 256]
0	0xbd791007	-0.0608063
1	0xbd81dc3a	-0.06340833
2	0xbd4fdc40	-0.050747156
3	0xbb0e1740	-0.0021681339
4	0x3bab52cd	0.0052283765
5	0xbdc822f2	-0.0977229
6	0xbd8b5d88	-0.06804949
7	0x3d00d31e	0.031451337
8	0x38803cfd	6.1148756e-05
9	0x3ad26025	0.0016050382
10	0xbd868f94	-0.06570354
11	0xbd061fba	-0.0327451
12	0xbd81890e	-0.06324969
13	0xb8939ef4	-7.0391136e-05
14	0xbd8ee05d	-0.06976388
15	0x3b9c0337	0.0047611254
16	0xbaa04779	-0.0012228332
17	0x3c6fc82a	0.014635125
18	0xbda20a2d	-0.07912097
19	0xbda55c94	-0.080742985
20	0x3cba56c7	0.022746457
21	0x3bc486d8	0.00599752
22	0xbd8de934	-0.069292456
23	0xbd4f991b	-0.050683122
24	0xbba26382	-0.00495571
25	0x3d5501d7	0.052003708
26	0xbd133bb7	-0.03594562
27	0xbdcb9371	-0.099402316
28	0x3d36b908	0.044610053
29	0x39538de7	0.00020175391
30	0xbc9962cf	-0.018723873
31	0xbd800164	-0.06250265
32	0x3cbdc8e6	0.023167085
33	0xbcb36f35	-0.021903614
34	0xbc6794eb	-0.014134626
35	0xbd96b426	-0.07358579
36	0x3cb6e892	0.022327695
37	0xbcb65bc2	-0.02226055
38	0x3cd3d5d1	0.025858792
39	0xbba02fd8	-0.004888516
40	0xbcb47ad1	-0.02203122
41	0xbd1afc1e	-0.037838094
42	0xbdd5f663	-0.10447385
43	0xbc79c82a	-0.015245477
44	0xbda53409	-0.080665655
45	0xbc3c6951	-0.011499719
46	0x3c71db2e	0.014761729
47	0xbb9bcea3	-0.0047548576
48	0x3d9571bd	0.072970845
49	0x3c38de3d	0.0112834545
50	0x3dc1a670	0.094555736
51	0xbb239840	-0.0024962574
52	0xbd015753	-0.03157742
53	0x3c8e2446	0.01735128
54	0xbc9b7cb7	-0.018980367
55	0xbb65282c	-0.0034966571
56	0xbc2a9415	-0.010411282
57	0xbc45abcc	-0.012064885
58	0xbd1c96ff	-0.03822994
59	0x3bed3225	0.0072386437
60	0xbdff9fbd	-0.124816395
61	0x3c3f5472	0.011677848
62	0x3cccc51b	0.024996331
63	0x3cd1ee7e	0.025626417
64	0x3c89f8a6	0.016842198
65	0xbc32179a	-0.010869885
66	0xbd760ecb	-0.0600727
67	0x3d2283af	0.039676365
68	0xbdf417d0	-0.119186044
69	0xbd91892c	-0.071062416
70	0xbde5322d	-0.11191211
71	0xbcb909b4	-0.022587635
72	0xbd58ac4a	-0.052898683
73	0xbd174302	-0.036929138
74	0xbdad5459	-0.08463354
75	0xbd2a552d	-0.041585136
76	0x3ba0c899	0.0049067256
77	0x3cc810b1	0.024422022
78	0x3cbbc44d	0.022920752
79	0xbdac1071	-0.084015734
80	0x3d5f0262	0.05444563
81	0xbd2ceb11	-0.042216364
82	0x3ca7ff4a	0.020507473
83	0x3bcd6e57	0.006269257
84	0xbd7ecaaa	-0.062204994
85	0xbc0c4fd2	-0.0085639525
86	0xbcc24fb7	-0.023719652
87	0x3a93bece	0.0011272074
88	0xbd939088	-0.072053015
89	0xbb8ad61e	-0.0042369505
90	0x3c59c6c3	0.013292017
91	0xbd95504a	-0.072907045
92	0xbd8de3bd	-0.06928203
93	0xbd349e5c	-0.044096336
94	0xbd02daea	-0.031947054
95	0xbce037a3	-0.02737028
96	0xbd0d7756	-0.034537636
97	0x3cd6a45a	0.026201416
98	0x3d47a771	0.04874367
99	0xbc643c5d	-0.013930407
100	0xbdc16e3e	-0.09444855
101	0xbd19041c	-0.037357435
102	0x3d824349	0.0636049
103	0x3c884e9f	0.016639052
104	0xbcb71e49	-0.022353308
105	0x3b69f267	0.0035697462
106	0xbcc9ecc3	-0.02464903
107	0x3c096b0f	0.008387341
108	0x3d60d45f	0.054890033
109	0x3d1a2793	0.037635397
110	0xbb0d6149	-0.002157288
111	0xbb90b93a	-0.004416612
112	0xbdaac443	-0.08338215
113	0x3cd3517d	0.025795693
114	0x3d406ef1	0.046980802
115	0x3d9446ef	0.07240092
116	0xbd6dfe4b	-0.05810384
117	0xbdd7faad	-0.105458595
118	0xbd939ab2	-0.0720724
119	0x3c5d39ca	0.0135025475
120	0xbbacf140	-0.0052777827
121	0x3c42cc2b	0.011889498
122	0xbd6b954c	-0.057515427
123	0xbc0754a2	-0.008259924
124	0xbd652167	-0.055940058
125	0xbd1e8627	-0.038702156
126	0x3c59ef5e	0.0133016985
127	0xbce92ccf	-0.02846375
128	0xbc84778f	-0.016170291
129	0xbdc4c4fa	-0.09607883
130	0x3d18807c	0.037231907
131	0xba890fd5	-0.0010456989
132	0x3be952f2	0.0071204836
133	0x3b935bf2	0.0044970447
134	0xbd9b8ff7	-0.075958185
135	0xbd59b05f	-0.053146716
136	0x3c9a4d3d	0.018835658
137	0xbd62d142	-0.055375345
138	0x3c8fc859	0.017551588
139	0xb9269e80	-0.0001589004
140	0x3bc099ce	0.00587771
141	0xbd4df618	-0.05028352
142	0xbc30efa8	-0.010799326
143	0xbd1b05ce	-0.037847333
144	0x3baffc13	0.0053706258
145	0xbd28a05f	-0.041168567
146	0xbc3a8b5b	-0.011385764
147	0x3d738ff8	0.05946347
148	0xbd27b508	-0.04094413
149	0xbd817092	-0.06320299
150	0xbd387f5a	-0.045043327
151	0xbdcc7ccf	-0.09984743
152	0xbd5b7a26	-0.053583287
153	0xbcf1187c	-0.02943062
154	0xbcfefe82	-0.031127218
155	0x3dcc525c	0.09976646
156	0x3d36d788	0.04463914
157	0x3d8120a9	0.063050576
158	0x3d86940a	0.06571205
159	0x3dcc2426	0.09967832
160	0x3d398633	0.045293998
161	0x3d77a823	0.060463082
162	0xbd5ee2e8	-0.054415613
163	0x3d460e7b	0.048353653
164	0x3d215104	0.039383903
165	0xbbb3553b	-0.0054728067
166	0xbd17dec7	-0.03707769
167	0xbd977119	-0.073946185
168	0xbc7e75e1	-0.015531034
169	0xbad80b59	-0.0016482874
170	0xbda2804a	-0.079346254
171	0xbd477601	-0.04869652
172	0xbd10ba7e	-0.035334103
173	0x3ae8e957	0.0017769736
174	0x3d649394	0.055804804
175	0x3d069024	0.032852307
176	0xbd9aed3a	-0.075647786
177	0xbdba2010	-0.09088147
178	0xbb2385ee	-0.0024951654
179	0xbd2de20d	-0.042451907
180	0xbdd4e70c	-0.10395631
181	0xbc0debeb	-0.008662204
182	0xbd53ce01	-0.051710133
183	0x3d0025fe	0.031286232
184	0xbceef53d	-0.029169673
185	0x3c936afd	0.017995352
186	0xbd24b599	-0.040212248
187	0xbdd837d4	-0.10557523
188	0xbdb0362b	-0.08604082
189	0xbc7d8b2b	-0.015475075
190	0xbda73b35	-0.0816559
191	0xbdc27083	-0.09494116
192	0x3d40be27	0.047056343
193	0x3cc8018d	0.024414802
194	0xbb41d590	-0.0029576756
195	0xbc08cdd8	-0.008349858
196	0xbe17c4f3	-0.14821224
197	0xbda603f3	-0.08106222
198	0xbd0775b5	-0.03307124
199	0x3d3b2a3a	0.045694567
200	0x3d050b59	0.032481525
201	0x3c7bea3e	0.015375672
202	0xbd863201	-0.06552506
203	0xbd17c8db	-0.037056785
204	0xbdf1f1b2	-0.11813678
205	0xbda79099	-0.08181877
206	0xbdced860	-0.10099864
207	0xbe2bad07	-0.16765223
208	0x3d389283	0.0450616
209	0xbd868f60	-0.06570315
210	0x3d8c784f	0.068588845
211	0xbc4d45d0	-0.012528852
212	0xbda5f51c	-0.081033915
213	0xbd607550	-0.054799378
214	0xbd4c3227	-0.049852517
215	0x3ce16b4c	0.027516983
216	0xbd2887fb	-0.041145306
217	0xbd3744c5	-0.044743318
218	0xbc112b1f	-0.0088603785
219	0x3ca02229	0.019547539
220	0xbd38b0f4	-0.04509063
221	0xbd78779a	-0.060660936
222	0xbd9d1237	-0.0766949
223	0xbc1b3370	-0.009472713
224	0xbd44323e	-0.047899477
225	0xbcd02eb9	-0.025412904
226	0xbcf7606f	-0.03019735
227	0xbc5aab3c	-0.0133464895
228	0xbbd3483c	-0.00644782
229	0xbd46ef94	-0.048568323
230	0xbce7dec4	-0.028304465
231	0x3bb9684f	0.0056581865
232	0x3c1ae3a8	0.009453692
233	0xbd68e8c9	-0.056862626
234	0xbd861fe8	-0.065490544
235	0x3c83b631	0.016078087
236	0xbd9aa854	-0.07551637
237	0xbd30a72d	-0.04312818
238	0x3d320142	0.04345823
239	0xbd8b26cf	-0.067945115
240	0xbda5f6fb	-0.081037484
241	0xbd021440	-0.031757593
242	0xbce5b20e	-0.028039005
243	0xbc195127	-0.009357727
244	0xbdf9e3c0	-0.12201643
245	0x3d65d7d4	0.056114033
246	0x3b353e1f	0.0027655435
247	0xbce37fe7	-0.02777095
248	0x3c3ca717	0.011514447
249	0x3ce522a1	0.027970614
250	0x3d30c7e5	0.043159384
251	0xbcf6d250	-0.030129582
252	0x3d9a9257	0.07547443
253	0x3db1762e	0.08665119
254	0x3d364db7	0.04450771
255	0xbc8ae2c6	-0.016953837

fc1.bias f4 [64]
0	0x3bac36e1	0.0052555655
1	0x3c1e4f70	0.009662494
2	0xbcdbfc91	-0.026853831
3	0x3ccf857f	0.02533221
4	0x3d9d9fdb	0.07696506
5	0x3d8a8a4e	0.06764661
6	0x3c5a88b6	0.0133382585
7	0xbd5287ef	-0.051399168
8	0xbd0b5fa8	-0.03402677
9	0x3dc25528	0.094888985
10	0xbcabb926	-0.02096231
11	0x3d5b2671	0.053503457
12	0xbb463f19	-0.0030250011
13	0xbd51dd8b	-0.05123667
14	0x3d0e4d29	0.034741554
15	0xbca7e17d	-0.020493263
16	0x3d23b249	0.039964948
17	0x3c694367	0.014237261
18	0x3cf8dd47	0.03037895
19	0x3cc0252b	0.023455223
20	0xbd93aa4b	-0.07210215
21	0xbd6b2d01	-0.057415966
22	0x3d0c1945	0.034203786
23	0xbd8b5f89	-0.06805331
24	0x3cd8ce4c	0.026465558
25	0xbba2efe3	-0.0049724444
26	0x3d0d0333	0.03442688
27	0x3d9e2bf1	0.07723225
28	0x3db790ed	0.08963189
29	0x3ceaad6c	0.028647147
30	0xbcf317ac	-0.029674374
31	0x3ad0afc1	0.0015921519
32	0xbd5b76a4	-0.05357994
33	0x3d052e3f	0.032514807
34	0xbc0e4658	-0.008683763
35	0x3d83836a	0.064215496
36	0x3bbe9b37	0.005816843
37	0xbc27ebc6	-0.010249084
38	0x3bd66044	0.0065422375
39	0x3d38de82	0.045134075
40	0x3d52124b	0.051286977
41	0xbcdd823c	-0.02703964
42	0x3b97c232	0.004631304
43	0x3dfba7fe	0.12287901
44	0x3da8d25e	0.08243249
45	0x3db7613c	0.08954093
46	0xbd2c94d3	-0.042134117
47	0x3d005234	0.031328395
48	0xbd385084	-0.04499866
49	0x3d408935	0.04700585
50	0xbd029d0e	-0.03188806
51	0xbc933f15	-0.017974416
52	0x3a472320	0.00075964816
53	0x3da09718	0.07841319
54	0xbd9017e2	-0.07035805
55	0x3c0a7309	0.008450278
56	0x3c267338	0.010159306
57	0xbd9376c6	-0.072003886
58	0x3d22ad44	0.03971602
59	0xbd28400f	-0.041076716
60	0x3d36d1c2	0.044633634
61	0x3d8e4067	0.069458775
62	0x3b20c296	0.0024530045
63	0xbdaad6cf	-0.08341753

fc2.weight f4 [32, 64]
0	0x3d852813	0.06501784
1	0x3d466c2d	0.04844301
2	0xbdb50527	-0.08838873
3	0xbd1d13dd	-0.03834902
4	0xbe003e0e	-0.12523672
5	0xbc83a1d0	-0.01606837
6	0x3ccba677	0.02485965
7	0xbdbbc104	-0.09167674
8	0xbdd5ce9a	-0.10439797
9	0xbdbf8c92	-0.093529835
10	0x3c804744	0.015658982
11	0xbdc526b7	-0.09626525
12	0xbddb1954	-0.1069819
13	0xbd17ad7a	-0.037030675
14	0xbd772050	-0.06033355
15	0xbd580926	-0.0527431
16	0x3df93037	0.121673994
17	0x3e29b902	0.16574481
18	0xbdc8d4ab	-0.09806188
19	0x3da351b5	0.07974569
20	0x3dee725f	0.11642908
21	0xbddb7c59	-0.10717077
22	0x3d22265c	0.039587364
23	0xbca52bc5	-0.020162473
24	0xbcb8873b	-0.02252542
25	0x3d2cb375	0.04216333
26	0x3c4e9aba	0.012610132
27	0xbd8c370f	-0.06846439
28	0x3cf63adb	0.030057361
29	0xbe2228ac	-0.15835828
30	0x3c99d375	0.018777588
31	0xbc4913e7	-0.0122728115
32	0xbd2164f9	-0.039402936
33	0xbde3e65d	-0.11127923
34	0xbe0655c1	-0.1311865
35	0xbbc7e1bd	-0.006099908
36	0xbd10cb95	-0.0353504
37	0x3d97fb22	0.07420947
38	0x3da4cc39	0.08046765
39	0x3cdaf60f	0.026728658
40	0x3d624174	0.055238202
41	0x3d7671f1	0.060167257
42	0x3ae6dd43	0.0017613549
43	0x3dd5a203	0.10431292
44	0xbda13bab	-0.07872709
45	0xbdbf3786	-0.09336762
46	0xbdbddd8f	-0.092707746
47	0xbd744aa0	-0.05964148
48	0xbcca09f0	-0.024662942
49	0x3c821c09	0.015882509
50	0xbdbc191a	-0.09184475
51	0x3e0d5d9c	0.1380524
52	0x3bb37d64	0.005477594
53	0x3b26837f	0.0025407968
54	0xbb830c2e	-0.0039992547
55	0xbd68a712	-0.056799956
56	0xbd8e6e6a	-0.069546536
57	0xbe0776dd	-0.13228936
58	0xbdf63630	-0.12022054
59	0x3c901ce1	0.017591896
60	0x3d33c27b	0.043886643
61	0xbd1b06a6	-0.037848137
62	0x3dbf57e3	0.09342935
63	0xbb3e6dd1	-0.0029057155
64	0xbe0515ae	-0.12996551
65	0x3dfa80d7	0.122316055
66	0x3e01d14a	0.12677494
67	0xbd8e3049	-0.069428034
68	0x3e107ae1	0.14109375
69	0x3cfda204	0.030961044
70	0x3dc05bb2	0.093924895
71	0x3df9cecd	0.12197647
72	0x3d267bab	0.040645283
73	0x3debe00f	0.11517345
74	0x3b0909af	0.0020910313
75	0x3e051cb2	0.12999228
76	0x3c4bf41e	0.012448339
77	0x3e182a21	0.14859821
78	0xbc6c2cd3	-0.014414984
79	0xbc0685e3	-0.008210632
80	0x3c641d28	0.013922967
81	0xbd06c7db	-0.03290544
82	0xbdcd5ef9	-0.1002788
83	0x3c4073bf	0.011746346
84	0x3e0c39c6	0.13693914
85	0xbdbb9c39	-0.091606565
86	0xbdf4cda9	-0.11953289
87	0xbdc06718	-0.093946636
88	0x3d96650f	0.07343494
89	0xbe22313b	-0.15839092
90	0xbd9384e5	-0.07203082
91	0x3debb400	0.11508942
92	0xbc155b81	-0.0091160545
93	0x3e1e79ac	0.15476102
94	0x3d16fcbb	0.036862116
95	0x3d7b69d6	0.06138023
96	0x3cbb4585	0.022860298
97	0xbd285188	-0.04109338
98	0xbd6eddbc	-0.05831693
99	0x3d088d5b	0.033337932
100	0xbba06fb7	-0.00489613
101	0x3d5ac38f	0.053409155
102	0xbcb71287	-0.022347702
103	0xbd528b8a	-0.051402606
104	0xbda8fcbc	-0.0825133
105	0x3e0dedd7	0.1386026
106	0xbda8dc70	-0.0824517
107	0xbb201b70	-0.0024430417
108	0x3e0d7eb0	0.13817859
109	0x3c0be5a0	0.008538634
110	0x3d9892a3	0.07449844
111	0xbd9eee90	-0.07760346
112	0xbe13faf9	-0.14451207
113	0xbda2fe82	-0.079587
114	0xbdc0fe7e	-0.094235405
115	0x3c4d4f16	0.012531063
116	0xbc3ab903	-0.011396649
117	0x3e0c6135	0.13708957
118	0x3db00137	0.08593982
119	0x3d80a888	0.06282145
120	0x3c9757b9	0.018474447
121	0x3c01a24c	0.00791223
122	0x3df4b428	0.119484246
123	0x3df01c9c	0.11724207
124	0xbde11fad	-0.1099237
125	0x3dbb7303	0.09152796
126	0xbcd6caaa	-0.026219685
127	0xbbe88f98	-0.007097196
128	0x3d375cc9	0.04476622
129	0x3d149e27	0.03628364
130	0xbd3a1d60	-0.04543817
131	0x3dbabe61	0.09118343
132	0xbccf7f0a	-0.025329132
133	0x3df16ba8	0.11788112
134	0x3e1660cf	0.14685367
135	0x3e3efa13	0.18650083
136	0xbddf17d1	-0.108932145
137	0xbd955c4e	-0.07292996
138	0x3d5862b2	0.0528285
139	0xbd0da1ee	-0.034578256
140	0xbd16b278	-0.036791295
141	0x3de79d48	0.11309296
142	0x3daf8c3a	0.08571668
143	0xbdd272c6	-0.102757975
144	0x3e1be13d	0.1522264
145	0xbd8cc931	-0.06874312
146	0x3dfdf0a9	0.12399418
147	0xbdba4a6f	-0.09096228
148	0x3da0ddee	0.0785483
149	0x3d9f20b7	0.07769912
150	0xbdb24da7	-0.08706217
151	0xbdcd8541	-0.10035182
152	0xbcd4fdb2	-0.025999878
153	0x3c92e6b2	0.01793227
154	0xbd0130ab	-0.031540554
155	0x3d43808b	0.04773001
156	0xbe32dfb1	-0.17468144
157	0x3dc80552	0.0976664
158	0xbdd89e57	-0.10577076
159	0x3d8fc12b	0.07019266
160	0xbdda19ab	-0.10649427
161	0x3e267645	0.16256054
162	0xbe24ba05	-0.16086586
163	0x3d7d5f34	0.06185837
164	0xbe068ac8	-0.13138878
165	0xbe1a792d	-0.15085287
166	0x3b249182	0.0025111143
167	0x3c914381	0.017732384
168	0x3e03e599	0.12880553
169	0x3d1cf6de	0.03832137
170	0xbc2571b5	-0.010097911
171	0xbcd3af8d	-0.025840545
172	0xbe08d365	-0.1336189
173	0x3b2db3d9	0.0026504903
174	0xbc72935d	-0.014805642
175	0x3e0e4378	0.13892925
176	0x3b886972	0.0041629607
177	0x3db98006	0.09057622
178	0xbd934c13	-0.071922444
179	0xbde26d50	-0.11056006
180	0xbddb903e	-0.107208714
181	0x3d8bea52	0.068318024
182	0xbe183b49	-0.14866365
183	0x3d2ac10e	0.041688018
184	0xbd14c355	-0.036319096
185	0x3e015d1d	0.12633176
186	0xbdc00fe5	-0.09378032
187	0x3d167278	0.03673026
188	0xbd714a07	-0.05890849
189	0x3da69b96	0.081351444
190	0xbe123ec3	-0.14281754
191	0x3de2d259	0.11075277
192	0xbcca369f	-0.024684248
193	0x3c87eab9	0.016591417
194	0xbd712595	-0.05887373
195	0x3d7957c7	0.060874727
196	0xbdd0530e	-0.101720914
197	0x3e197296	0.14985117
198	0xbd1aa9f2	-0.03775973
199	0xbd12477a	-0.035712697
200	0x3d2b1e5f	0.04177701
201	0x3d35cf99	0.044387434
202	0xbda534ef	-0.08066737
203	0x3d0f902f	0.035049614
204	0xbd903df1	-0.070430644
205	0x3dde4fef	0.1085509
206	0x3de6dc99	0.112725444
207	0x3d05bdb8	0.032651633
208	0xbb71c925	-0.0036893573
209	0xbcf9d72d	-0.030498112
210	0xbd19c082	-0.037537105
211	0xbcc40cc4	-0.023931868
212	0xbd1879e1	-0.037225608
213	0x3a3e9318	0.00072698435
214	0xbe313e5f	-0.17308949
215	0xbe05e821	-0.13076831
216	0xbdff3c8a	-0.12462719
217	0x3dd94dd0	0.10610545
218	0xbda0bbd0	-0.078483224
219	0x3e9468b8	0.28986144
220	0xbe335116	-0.175114
221	0x3dbb4adb	0.09145137
222	0x3c2a088c	0.010378014
223	0xbd80e155	-0.06292979
224	0xbda7ddde	-0.08196615
225	0x3e2ee9bb	0.17081349
226	0xbdc55f2e	-0.09637295
227	0xbdd18167	-0.1022976
228	0xbd39981d	-0.045311082
229	0xbd9c03f2	-0.0761794
230	0xbd97b013	-0.0740663
231	0x3de310e5	0.11087207
232	0xbd3d8b6e	-0.04627555
233	0xbd51e6b0	-0.05124539
234	0xbdc84c08	-0.09780127
235	0x3d7a1fb8	0.061065406
236	0xbe1f00ad	-0.15527602
237	0xbd1d4ad1	-0.03840143
238	0x3df41df8	0.119197786
239	0xbdcab896	-0.09898488
240	0x3dbc26eb	0.091871105
241	0x3dd3aec7	0.103360705
242	0xbdbee850	-0.09321654
243	0xbe08eeb2	-0.13372305
244	0xbe2dd2cd	-0.16974945
245	0xbd96331f	-0.07333969
246	0x3e0024b5	0.12514003
247	0xba2c922e	-0.0006583062
248	0xbd9487b3	-0.07252445
249	0x3de00ad3	0.109395646
250	0xbd82b024	-0.063812524
251	0xbd21511b	-0.03938399
252	0xbda63296	-0.08115117
253	0xbd7fb737	-0.062430587
254	0x3d60bd51	0.054868046
255	0x3cf6d2fa	0.030129898

fc2.bias f4 [32]
0	0xbdcf3e55	-0.10119311
1	0x3dec3d46	0.115351245
2	0x3c8d398b	0.017239353
3	0xbd6e50ed	-0.058182646
4	0xbd3eaf70	-0.04655403
5	0x3deb3601	0.1148491
6	0x3c0b467b	0.008500691
7	0x3e024cc0	0.1272459
8	0x3bff8703	0.007798077
9	0xbdf28e2d	-0.11843524
10	0x3a9da2dd	0.0012026686
11	0x3cf5fd9f	0.030028163
12	0x3d4c4991	0.049874846
13	0xbd0f8cf6	-0.03504654
14	0x3d89001d	0.06689475
15	0xbd1120fd	-0.03543185
16	0xbd944519	-0.07239742
17	0x3de96ccb	0.11397704
18	0xbd4f3e06	-0.05059626
19	0xbdcd573c	-0.10026404
20	0x3cc048da	0.023472238
21	0x3dd7ba21	0.10533548
22	0xbb0b2b76	-0.0021235622
23	0x3c07eb37	0.008295826
24	0xbe1d36c3	-0.15352921
25	0x3df1ae6b	0.11800846
26	0x3d6b9fa1	0.05752528
27	0xbd7f7da5	-0.062375683
28	0x3c0ead21	0.008708269
29	0xbcb8926e	-0.02253076
30	0xbd4a4786	-0.049384616
31	0x3ceeba3b	0.029141536

fc3.weight f4 [10, 32]
0	0x3e625512	0.22102764
1	0xbe2ded35	-0.16985019
2	0x3e0e7ca3	0.13914733
3	0xbc1fe87d	-0.009760019
4	0xbda6283d	-0.081131436
5	0x3e37a42b	0.17933719
6	0x3d1303c6	0.03589227
7	0x3de9ee7d	0.11422441
8	0x3d953546	0.07285552
9	0xbe30928a	-0.172434
10	0xbe58ac67	-0.21159516
11	0x3e51b474	0.20478994
12	0x3da47539	0.08030171
13	0x3d22b5dd	0.03972422
14	0xbdeaa9bf	-0.11458158
15	0xbd0d39e7	-0.034479048
16	0xbb19ba2b	-0.0023456912
17	0xbcb4c28b	-0.022065422
18	0x3d6ac8a8	0.057320267
19	0xbc4d4fb3	-0.012531209
20	0x3db0a129	0.08624489
21	0xbd7c2c8a	-0.061565913
22	0x3db599ee	0.088672504
23	0x3d2fdcf9	0.042935345
24	0xbd6d08f6	-0.057869874
25	0x3e3bc5ff	0.18337248
26	0xbe68c05b	-0.22729628
27	0xbbc1ad59	-0.005910557
28	0xbb869c83	-0.004108013
29	0xbe36225b	-0.17786543
30	0x3e1658a4	0.14682251
31	0xbdb44730	-0.088026404
32	0x3e05dd8e	0.13072798
33	0x3d80ee12	0.06295408
34	0x3e8cf3eb	0.27529845
35	0x3e74336e	0.23847744
36	0xbd39f743	-0.045401823
37	0xbd75b07a	-0.059982754
38	0x3e39c265	0.18140562
39	0xbe268873	-0.16262989
40	0x3e78e61b	0.24306528
41	0xbd2ddb4a	-0.04244546
42	0xbd447d3e	-0.047971003
43	0x3c832b69	0.01601191
44	0xbd94a923	-0.07258823
45	0xbe5bae32	-0.21453169
46	0xbe5c6de8	-0.21526301
47	0x3e3346f1	0.17507531
48	0xbde35837	-0.1110081
49	0x3d7f6db9	0.0623605
50	0x3d37930d	0.044817973
51	0xbe4b8b74	-0.19877416
52	0x3dd6d33b	0.10489508
53	0x3d33851c	0.043828115
54	0xbd78207c	-0.060577855
55	0xbd41d781	-0.04732466
56	0x3e06b9ce	0.13156816
57	0x3e698d19	0.2280773
58	0x3e0506f1	0.12990929
59	0x3e4272c3	0.1898909
60	0x3d3196e1	0.04335678
61	0xbe512341	-0.20423605
62	0xbe5a7edb	-0.21337454
63	0x3e3b850e	0.18312475
64	0xbdc277b6	-0.09495489
65	0x3dcbf6cd	0.09959183
66	0xbcc256f3	-0.023723101
67	0xbe28f27f	-0.16498755
68	0xbdb539d3	-0.0884892
69	0x3d9da1ea	0.07696898
70	0xbc0addd9	-0.008475744
71	0xbd6f528c	-0.058428332
72	0xbd52cb01	-0.05146313
73	0xbc9dad2a	-0.01924761
74	0xbd0fc6e6	-0.035101794
75	0x3e478a2c	0.19486302
76	0xbe1f5bf3	-0.1556242
77	0x3db1699e	0.08662723
78	0xbe0f9d6a	-0.14024892
79	0x3e2573b1	0.16157414
80	0x3e257a17	0.16159855
81	0xbde00ddb	-0.10940143
82	0xbdd8c8e9	-0.105851956
83	0xbe33e6b7	-0.1756848
84	0xbcb4bfaa	-0.022064049
85	0x3e154821	0.14578296
86	0x3e496947	0.19669066
87	0xbdae4df5	-0.08510963
88	0x3dd230fc	0.10263249
89	0xbeb3a785	-0.35088745
90	0xbe4d80b1	-0.20068623
91	0xbda5ba34	-0.08092156
92	0x3e46b75a	0.1940588
93	0xbb9ef99c	-0.004851533
94	0xbd801304	-0.06253627
95	0x3e76f219	0.2411579
96	0x3d90f0cf	0.070771806
97	0xbde32f1f	-0.11092972
98	0x3c522892	0.0128270555
99	0x3dc67740	0.09690714
100	0x3dfbc02c	0.12292513
101	0xbc849bbe	-0.016187545
102	0x3dc1efbe	0.09469555
103	0x3c1c0952	0.0095237065
104	0xbe637850	-0.22213864
105	0x3da7be89	0.081906386
106	0xbd6e166d	-0.058126856
107	0x3ce27646	0.027644288
108	0x3e4a7aac	0.19773358
109	0x3e6c8591	0.23097827
110	0xbe284215	-0.16431458
111	0x3e70e3f4	0.23524457
112	0x3e5dab28	0.21647322
113	0x3e166ebe	0.14690682
114	0xbcbdc5cd	-0.023165608
115	0xbd107cc5	-0.03527524
116	0x3e2d8353	0.16944627
117	0xbe550c79	-0.20805539
118	0x3e26019b	0.1621155
119	0xbe59489a	-0.21219102
120	0x3e381b33	0.17979126
121	0xbd461f6a	-0.048369803
122	0xbe078b13	-0.13236646
123	0x3d8d2268	0.06891328
124	0xbe6d9ebb	-0.23205082
125	0x3d97a5bf	0.074046604
126	0xbe2a599c	-0.16635746
127	0xbe1d9c57	-0.1539167
128	0x3d9bb453	0.076027535
129	0xbb8954fb	-0.0041910387
130	0x3d257024	0.04039015
131	0x3cdd0216	0.026978534
132	0x3e5ddd8e	0.21666548
133	0x3da24d56	0.07924907
134	0x3e107cee	0.14110157
135	0x3d06fb5a	0.03295455
136	0xbdcacfa5	-0.09902886
137	0xbe1d3087	-0.15350543
138	0x3e310c31	0.17289807
139	0xbe45486a	-0.19265905
140	0xbdccea8d	-0.100056745
141	0xbe704a82	-0.23465922
142	0xbdca409c	-0.098756045
143	0xbd8d099a	-0.06886597
144	0x3ddee55c	0.108835906
145	0x3e4de88b	0.2010824
146	0xbc96db38	-0.018415079
147	0x3d106782	0.035254963
148	0xbe743076	-0.23846611
149	0x3e0416f6	0.12899384
150	0xbe80fd1c	-0.25193107
151	0xbd5bf1e6	-0.05369749
152	0xbdbe4152	-0.092898026
153	0x3dc7cb83	0.09755614
154	0xbe6639dc	-0.22483009
155	0x3c8a4e48	0.01688303
156	0xbe3ca982	-0.18424037
157	0xbd9b9029	-0.07595856
158	0x3c471b6a	0.012152532
159	0x3e8433f3	0.25820884
160	0x3d8729c6	0.065997645
161	0xbd4bf13b	-0.049790602
162	0xbe27dda7	-0.16393147
163	0x3d91c8e1	0.07118393
164	0x3d925b73	0.07146349
165	0xbcb6dc0d	-0.022321725
166	0xbe28f15a	-0.16498318
167	0x3e4d169a	0.20028153
168	0x3b90bc19	0.0044169542
169	0xbcb2b793	-0.02181605
170	0xbc501903	-0.012701276
171	0xbdb7268f	-0.08942901
172	0x3e2f01c1	0.17090513
173	0x3dd56a3c	0.10420653
174	0x3e1e63e7	0.15467797
175	0xbe6d9f7b	-0.23205368
176	0xbe31e1d5	-0.17371304
177	0x3e1dfd0c	0.15428561
178	0xbe08a3df	-0.13343762
179	0xbe10c300	-0.14136887
180	0x3e340f77	0.17584024
181	0xbc77e9d8	-0.015131436
182	0xbe042552	-0.12904862
183	0xbe62481c	-0.2209782
184	0xbe1488d7	-0.14505325
185	0xbd87bde9	-0.06628019
186	0x3e225287	0.15851794
187	0xbd14d9be	-0.036340468
188	0xbe087f21	-0.13329746
189	0x3e585ed3	0.21129923
190	0xbdd66339	-0.10468144
191	0xbd95d99c	-0.07316896
192	0x3e211355	0.15730031
193	0x3d97d832	0.07414283
194	0xbe5e78f8	-0.21725833
195	0xbd0bd325	-0.03413691
196	0x3d5527b6	0.052039824
197	0x3e0d0b11	0.13773753
198	0xbcaeabdf	-0.021322189
199	0x3e4f700e	0.20257589
200	0xbd6cb633	-0.057790946
201	0x3d35ade7	0.0443553
202	0xbd65d975	-0.056115586
203	0xbe84786b	-0.25873122
204	0xbe41a4c2	-0.18910506
205	0xbe377be6	-0.17918357
206	0xbc11497f	-0.0088676205
207	0x3e1a735e	0.15083072
208	0xbeaec973	-0.3413807
209	0xbc1ca2a2	-0.009560259
210	0xbe64f339	-0.22358407
211	0xbd1393f0	-0.036029756
212	0x3b884dd0	0.0041596666
213	0x3d364d9e	0.044507615
214	0xbdfe7442	-0.12424518
215	0xbe752d16	-0.2394298
216	0xbd198273	-0.03747792
217	0x3e84e7e1	0.2595816
218	0xbe347c1f	-0.17625473
219	0xbde2f85b	-0.11082526
220	0xbe3cf45a	-0.18452588
221	0x3c9f05fa	0.01941203
222	0x3e61d00c	0.2205202
223	0xbe5949f8	-0.21219623
224	0x3d93b7d8	0.072128
225	0xbdc1f7ef	-0.09471118
226	0x3da62a38	0.08113521
227	0x3d374a4a	0.044748582
228	0x3d92fc8d	0.071770765
229	0xbe8ed6c6	-0.27898234
230	0x3e084930	0.13309169
231	0xbe456d45	-0.19279964
232	0x3e3bdd73	0.18346195
233	0xbe53f1ed	-0.20697756
234	0x3dbe00cc	0.09277496
235	0x3e43b536	0.19112095
236	0x3d6343d4	0.055484608
237	0xbd4080dc	-0.04699789
238	0xbd065824	-0.0327989
239	0xbd71700f	-0.058944758
240	0x3d97d84a	0.07414301
241	0x3e2e0aba	0.1699628
242	0xbe011cf8	-0.12608707
243	0xbd3e79e0	-0.046502948
244	0xbe969b68	-0.2941544
245	0xbd8e2139	-0.069399305
246	0x3da754da	0.08170481
247	0x3cae5551	0.021280916
248	0x3add9f82	0.0016908499
249	0xba498884	-0.0007687884
250	0xbd399fd6	-0.045318447
251	0xbb1d66b5	-0.0024017517
252	0x3e14ecf6	0.14543518
253	0xbc33f3bc	-0.010983404
254	0x3e2fd154	0.17169696
255	0xbe43c7b2	-0.19119146

fc3.bias f4 [10]
0	0xbd222cfb	-0.039593678
1	0x3e186954	0.1488393
2	0x3c8e3ea4	0.017363854
3	0xbd98204f	-0.074280374
4	0x3e175ddd	0.147819
5	0xbc8456a6	-0.016154598
6	0x3d4d7b19	0.050166223
7	0xbe03b514	-0.12862045
8	0xbb8d777b	-0.0043172217
9	0x3c015c64	0.007895563

exp_avg f4 [8, 1, 5, 5]
0	0x389330c3	7.018589e-05
1	0x3a073efd	0.00051592273
2	0x3aaadf26	0.0013036474
3	0x3a4d7204	0.0007837119
4	0xba04e32c	-0.00050692516
5	0xba2560cb	-0.0006308674
6	0x3acf3f9f	0.0015811807
7	0x3b0f731e	0.0021888684
8	0x3aba54a0	0.0014215894
9	0x3abe3e57	0.0014514428
10	0xba131a48	-0.0005611521
11	0x3a8147d5	0.0009863327
12	0x3a648737	0.00087176583
13	0x3a8292d3	0.000996197
14	0x3ab78a27	0.0014002965
15	0xba52f811	-0.0008047829
16	0x39ae0597	0.0003319203
17	0xba3f0cd6	-0.00072879845
18	0xba30e0dd	-0.00067473744
19	0x39e0c426	0.0004287075
20	0x39a0d1da	0.0003067393
21	0x3a3f25ef	0.00072917243
22	0xbac87451	-0.0015293454
23	0x39b17c0e	0.000338525
24	0x3a5f3c94	0.0008515802
25	0x3a6875d4	0.00088676554
26	0x3a3c1eeb	0.0007176238
27	0x39dbe862	0.00041944074
28	0xba011416	-0.00049239525
29	0xba4e0dde	-0.0007860343
30	0x3aaa39c2	0.0012987184
31	0x3a8675a0	0.0010258444
32	0x3900fbb9	0.00012300805
33	0xbaa4368d	-0.0012528464
34	0xba31b8be	-0.0006779543
35	0x3aa2fd8b	0.0012435181
36	0x39df6c54	0.00042614585
37	0xba11c7de	-0.00055610936
38	0xbad7cc48	-0.0016464079
39	0xb8fe113e	-0.000121148754
40	0x3a824228	0.0009937929
41	0x377e8577	1.51706545e-05
42	0xba8db94a	-0.0010812667
43	0xbace34d6	-0.0015732299
44	0xb91dbb2b	-0.00015042412
45	0xb8038ddf	-3.136496e-05
46	0xbaa8fa44	-0.0012891968
47	0xbaf9f170	-0.0019069146
48	0xbae4473f	-0.0017416253
49	0xba2bf026	-0.0006558917
50	0xb9bcf6d1	-0.00036042047
51	0xbaf22ebb	-0.0018477062
52	0xbae2f1f7	-0.0017314543
53	0xba8f7877	-0.0010945936
54	0x3991397e	0.0002769939
55	0xba85a0b7	-0.0010194991
56	0xbb11bd62	-0.0022238125
57	0xbac73575	-0.0015198427
58	0x39816935	0.00024683183
59	0x3ad1f007	0.0016016968
60	0xbaaf209f	-0.0013361162
61	0xbb16bd41	-0.0023000988
62	0xb9c02d17	-0.00036654688
63	0x3ae81fd1	0.0017709677
64	0x3b1b03ba	0.0023653344
65	0xbaf0080c	-0.0018312945
66	0xbb00dcd9	-0.0019662885
67	0x39c55eed	0.00037645493
68	0x3b099580	0.002099365
69	0x3b30457c	0.0026896885
70	0xbb1b5cac	-0.002370636
71	0xbac56562	-0.0015060122
72	0x398e7a42	0.0002717544
73	0x3aca9236	0.0015454951
74	0x3b15cf94	0.0022859322
75	0x38ed9c21	0.00011330122
76	0xb9841515	-0.0002519271
77	0xb9152936	-0.000142251
78	0x3a4f879a	0.00079166295
79	0x3a127a04	0.000558764
80	0x39b2c994	0.00034100993
81	0xb971c0c1	-0.00023055357
82	0xb9979324	-0.00028910593
83	0x39cf38a8	0.0003952433
84	0x394d3f03	0.00019573797
85	0x3a41df86	0.00073956733
86	0xba02f107	-0.00049950223
87	0xba5d9bf1	-0.0008453718
88	0xba077f87	-0.00051688444
89	0x39c86807	0.0003822448
90	0x3a64458e	0.0008707874
91	0xb9f8b488	-0.00047436752
92	0xba9b5ebe	-0.0011853797
93	0xba373914	-0.00069894013
94	0x39baac78	0.00035605184
95	0x392fd94a	0.00016770247
96	0xba8e940f	-0.0010877865
97	0xbabee7ce	-0.0014564933
98	0xba9dafd4	-0.001203055
99	0xba041a72	-0.0005039341
100	0x3a8ce41c	0.0010749134
101	0x3a9e8c7a	0.0012096309
102	0x3aa2e771	0.0012428594
103	0x39f323bd	0.000463752
104	0x3a1b252d	0.00059183204
105	0x3a7b30a8	0.00095821405
106	0x3a257de8	0.0006313012
107	0x39cac596	0.00038675655
108	0xb8e9adaf	-0.00011142657
109	0x3a13452e	0.00056179136
110	0x3a0dac55	0.00054044026
111	0xb88fa578	-6.849592e-05
112	0xb86708ab	-5.5082764e-05
113	0x38c62329	9.447925e-05
114	0x39a2c33f	0.00031044518
115	0x3989eb09	0.0002630579
116	0xb9833560	-0.00025026035
117	0xb7da8f85	-2.6054457e-05
118	0xb7026b40	-7.773575e-06
119	0x383f7f2a	4.565638e-05
120	0xb98e4ecb	-0.00027143056
121	0xb9f8cbe0	-0.00047454145
122	0xb9511181	-0.00019938314
123	0xba02f9d8	-0.0004996336
124	0xba23b287	-0.0006244559
125	0xb887d9d9	-6.477879e-05
126	0xb9a8e727	-0.0003221568
127	0xbaa01d93	-0.0012215845
128	0xbaca6e36	-0.0015444222
129	0xba147abd	-0.00056640414
130	0xb96d0755	-0.00022604813
131	0xba69894f	-0.0008908705
132	0xbadcd12a	-0.0016847004
133	0xbadacde8	-0.0016693445
134	0xb9df04f4	-0.00042537565
135	0x3977f7ed	0.00023648115
136	0xba8c4ebc	-0.0010704617
137	0xbaf13101	-0.0018401445
138	0xba9d2e63	-0.0011991974
139	0xb9bd3f5d	-0.00036096098
140	0xb6fed8c9	-7.595027e-06
141	0xbac730e1	-0.0015197062
142	0xbad13e76	-0.0015964049
143	0xb9e722cb	-0.00044085676
144	0x39e4af37	0.00043618094
145	0xbadb281a	-0.0016720325
146	0xbb0b7f5d	-0.0021285631
147	0xba12a329	-0.0005593771
148	0x3a014617	0.00049314037
149	0x3a111537	0.00055344723
150	0x3a33f976	0.00068654807
151	0xb7be4de0	-2.2686028e-05
152	0xb9939d8e	-0.00028155412
153	0xb63420d9	-2.684121e-06
154	0x3a3235e9	0.00067981944
155	0x3a612c9c	0.0008589716
156	0x392ece09	0.00016670687
157	0xba5aa88b	-0.0008341155
158	0x39a56f51	0.0003155419
159	0x3aa58fb9	0.0012631334
160	0x3a9c90e4	0.0011945036
161	0x388c558d	6.691655e-05
162	0xba6b8802	-0.00089848053
163	0xba0276a9	-0.0004976788
164	0x3a968776	0.0011484462
165	0x3aa69d23	0.0012711625
166	0xb959fa09	-0.00020787878
167	0xba8e6b03	-0.0010865632
168	0xba7c0243	-0.0009613374
169	0x39b336bc	0.0003418232
170	0x394114c6	0.00018413653
171	0xbaa5689e	-0.0012619679
172	0xbad9f01e	-0.0016627347
173	0xbacdc732	-0.0015699624
174	0xba1aa806	-0.0005899671
175	0x3a01fb6b	0.00049584237
176	0x3753d964	1.2627195e-05
177	0x38008138	3.0637922e-05
178	0xb9f04292	-0.00045825966
179	0x38f71baf	0.00011783034
180	0x3a709104	0.00091768824
181	0xb9f2fc14	-0.0004634565
182	0xb92984e2	-0.00016166599
183	0xba9ba666	-0.0011875152
184	0xba44e609	-0.00075110846
185	0x3aac0b38	0.0013125902
186	0x3a1059a1	0.000550652
187	0xb8edf6e1	-0.000113470254
188	0xbab83060	-0.0014052503
189	0xba969c51	-0.0011490678
190	0x3b00dd53	0.001966317
191	0x3a7fcf2d	0.00097583496
192	0x3a0caa3d	0.00053659437
193	0xba29f080	-0.00064826757
194	0xba22c712	-0.00062094734
195	0x3ac30b83	0.001488075
196	0x3abb53fc	0.0014291997
197	0x3ac8e5e4	0.0015327302
198	0x3a44cf4a	0.0007507695
199	0x3a1ca83f	0.00059759984

exp_avg_sq f4 [8, 1, 5, 5]
0	0x392aaef0	0.00016277633
1	0x3929260d	0.00016131271
2	0x3940dc3f	0.00018392595
3	0x396016b7	0.00021370767
4	0x394d0cf5	0.0001955515
5	0x3937550c	0.00017483922
6	0x392e427f	0.00016618705
7	0x394f52ac	0.00019771856
8	0x39522f8e	0.00020044876
9	0x396c1320	0.00022513838
10	0x396b1143	0.00022417777
11	0x398dfb63	0.00027080913
12	0x39a722dd	0.00031878697
13	0x39ab72ac	0.000327011
14	0x39d0b3a9	0.0003980671
15	0x39c9f87a	0.00038522837
16	0x3a0ef687	0.00054536056
17	0x3a1811da	0.0005801
18	0x3a203d04	0.00061126077
19	0x3a27841f	0.0006390232
20	0x3a1136f2	0.00055394985
21	0x3a449774	0.0007499375
22	0x3a467b17	0.00075714424
23	0x3a50d320	0.00079660304
24	0x3a395063	0.00070691685
25	0x379288b7	1.7468219e-05
26	0x37cab9ea	2.416685e-05
27	0x382444f0	3.916485e-05
28	0x38875dff	6.45481e-05
29	0x388751bd	6.4525266e-05
30	0x3797e339	1.8106412e-05
31	0x37cc1217	2.4327119e-05
32	0x383380f5	4.2797026e-05
33	0x3887a813	6.468608e-05
34	0x384b3f9a	4.8458205e-05
35	0x37994341	1.8270339e-05
36	0x37e7fd59	2.765532e-05
37	0x385d3ea2	5.2748837e-05
38	0x38747d4b	5.829082e-05
39	0x380a76e6	3.3012497e-05
40	0x37ca13a7	2.4089428e-05
41	0x3830a710	4.211726e-05
42	0x387d4882	6.038743e-05
43	0x385784db	5.1383726e-05
44	0x37e74113	2.7567648e-05
45	0x38142977	3.5324567e-05
46	0x386667da	5.4932992e-05
47	0x387575be	5.8522208e-05
48	0x3838a9b0	4.4027052e-05
49	0x37f08fe6	2.8677237e-05
50	0x3923f39d	0.00015635644
51	0x39820fc9	0.00024807293
52	0x397ceb1c	0.00024120178
53	0x392fa25e	0.00016749787
54	0x38c123a7	9.209598e-05
55	0x39609461	0.0002141758
56	0x399b6e5a	0.00029646122
57	0x39718836	0.00023034294
58	0x38ef6b8a	0.00011416439
59	0x3885019b	6.342233e-05
60	0x398ea16d	0.00027204622
61	0x39a931e1	0.00032271355
62	0x3970d635	0.00022967982
63	0x38d4621a	0.000101272206
64	0x38724aa9	5.776683e-05
65	0x399adc59	0.0002953734
66	0x39a0cdb2	0.00030670833
67	0x394cca98	0.00019530428
68	0x38b4e729	8.626126e-05
69	0x386e7b6a	5.685856e-05
70	0x398c22a6	0.00026728696
71	0x39833aa5	0.0002502996
72	0x3923f367	0.00015635566
73	0x38ae4ed8	8.311652e-05
74	0x3892b75b	6.995975e-05
75	0x37e47bfc	2.7237453e-05
76	0x381688cf	3.58902e-05
77	0x3836923d	4.3528376e-05
78	0x382275a3	3.8733368e-05
79	0x38074e3e	3.2259377e-05
80	0x37d9c87e	2.5961777e-05
81	0x3810304b	3.437725e-05
82	0x38213d89	3.84427e-05
83	0x380d1e42	3.36452e-05
84	0x37e294bf	2.7010565e-05
85	0x37b4be01	2.154615e-05
86	0x38009a86	3.066149e-05
87	0x38169909	3.5905312e-05
88	0x38001d76	3.0545016e-05
89	0x37c7c901	2.3816248e-05
90	0x37afcfdb	2.0958416e-05
91	0x3804862b	3.1596206e-05
92	0x3823ff02	3.9099723e-05
93	0x38045cb8	3.1557604e-05
94	0x37d11730	2.4925539e-05
95	0x37c9280a	2.3979712e-05
96	0x380ad575	3.310056e-05
97	0x38293bb2	4.0348335e-05
98	0x380bdb24	3.3344273e-05
99	0x3801c705	3.0941348e-05
100	0x37c5896a	2.3548218e-05
101	0x37a951df	2.0184494e-05
102	0x37a6b61d	1.9873545e-05
103	0x37bb02a0	2.229336e-05
104	0x37d9ed31	2.5978867e-05
105	0x380c282e	3.341602e-05
106	0x38094b61	3.2733547e-05
107	0x38077ce2	3.2302814e-05
108	0x38150e1d	3.5537512e-05
109	0x382ae4da	4.0744293e-05
110	0x3847070d	4.7451864e-05
111	0x383e9d3e	4.5445973e-05
112	0x382504d5	3.9343566e-05
113	0x38267960	3.9690523e-05
114	0x383a1338	4.4363755e-05
115	0x3842714a	4.6358713e-05
116	0x3820a22b	3.8298003e-05
117	0x3800de24	3.0724463e-05
118	0x3807d3b3	3.238367e-05
119	0x38228021	3.874314e-05
120	0x3801b4e7	3.0924475e-05
121	0x37cf0f94	2.4683577e-05
122	0x37ca8f71	2.4147072e-05
123	0x3801e444	3.0968586e-05
124	0x380ae81c	3.3117933e-05
125	0x37685b76	1.38495725e-05
126	0x37878673	1.6155862e-05
127	0x37d3af2d	2.5234733e-05
128	0x3800c3e2	3.070001e-05
129	0x37d981b9	2.5928823e-05
130	0x378c9b5a	1.6761642e-05
131	0x37b635b3	2.1721096e-05
132	0x37fd5327	3.0198671e-05
133	0x37f28e6e	2.8914972e-05
134	0x37d00136	2.4796096e-05
135	0x378ed39e	1.7026261e-05
136	0x37ce67c1	2.4605428e-05
137	0x37fa6c82	2.985285e-05
138	0x37adce38	2.0719235e-05
139	0x378e1a7c	1.6940052e-05
140	0x37a15c1f	1.9235593e-05
141	0x380ad961	3.3104214e-05
142	0x37ff9857	3.0469308e-05
143	0x377dfe8c	1.5139241e-05
144	0x37365bf1	1.0869452e-05
145	0x37e0f52e	2.6817052e-05
146	0x3826cd27	3.9768547e-05
147	0x37f2229f	2.886477e-05
148	0x376eff26	1.4245312e-05
149	0x373776fa	1.0935351e-05
150	0x378e8a60	1.6992155e-05
151	0x37b4744b	2.1511825e-05
152	0x380fd7d8	3.4294877e-05
153	0x3827fef7	4.0053357e-05
154	0x3800f755	3.0747924e-05
155	0x378408e3	1.5739764e-05
156	0x37aa7e57	2.032441e-05
157	0x38065e2b	3.203579e-05
158	0x37fb0388	2.9923176e-05
159	0x37bee66e	2.2757067e-05
160	0x377861de	1.4804738e-05
161	0x37b620a0	2.1711283e-05
162	0x38052584	3.174461e-05
163	0x37dd1126	2.6353238e-05
164	0x379fe07e	1.9058814e-05
165	0x376eb58a	1.4228173e-05
166	0x37ca8425	2.4141811e-05
167	0x381014ca	3.4351637e-05
168	0x38004824	3.0584764e-05
169	0x37d028a8	2.4814464e-05
170	0x37893e33	1.6360636e-05
171	0x37daab50	2.6067399e-05
172	0x380c3ed2	3.3437107e-05
173	0x38127e2b	3.4926616e-05
174	0x380ce23c	3.35893e-05
175	0x38f1e0bb	0.00011533635
176	0x393066e1	0.00016822993
177	0x395d9657	0.00021132208
178	0x39835066	0.0002504617
179	0x3987fe07	0.00025938472
180	0x39428f4b	0.00018554663
181	0x397ad220	0.00023920136
182	0x39971a4e	0.00028820563
183	0x399feb95	0.00030502366
184	0x399f02d9	0.00030328965
185	0x393f8a89	0.00018266788
186	0x3961b6d8	0.00021525787
187	0x3975467c	0.00023391278
188	0x398f63a1	0.00027349315
189	0x399d2753	0.00029974672
190	0x38fef854	0.000121579185
191	0x38fb2251	0.000119750046
192	0x391da5bc	0.00015034428
193	0x393e0358	0.00018121058
194	0x396b243c	0.00022424845
195	0x38ab6fca	8.174738e-05
196	0x38a82af0	8.018862e-05
197	0x38faaa6e	0.00011952674
198	0x390f931e	0.00013692348
199	0x393771aa	0.00017494583

exp_avg f4 [8]
0	0x3b3e5fdf	0.0029048843
1	0xba8ebf8d	-0.0010890827
2	0xbb2e114b	-0.00265606
3	0xba522344	-0.0008016119
4	0x3b59f411	0.0033257047
5	0x39d6a433	0.000409396
6	0x3a767a45	0.0009402375
7	0x3ba2e5b2	0.0049712295

exp_avg_sq f4 [8]
0	0x3afacfad	0.0019135379
1	0x38c03980	9.165984e-05
2	0x3aa3f23d	0.0012508106
3	0x39229a8f	0.00015507101
4	0x39826b86	0.00024875643
5	0x38562e68	5.1064795e-05
6	0x3919e217	0.00014675442
7	0x3ab4f472	0.001380576
