lightning_logs/version_1/checkpoints/epoch=7-step=13752.ckpt (torch, 281624 bytes, 30 tensors)

conv1.weight f4 [8, 1, 5, 5]
0	0x3e0ac69c	0.13552326
1	0xbec727a7	-0.3889744
2	0xbeccb9a6	-0.3998539
3	0x3c20023d	0.009766159
4	0x3df3d968	0.11906701
5	0x3dd2f818	0.103012264
6	0xbd7b6e53	-0.06138451
7	0x3e25d3e8	0.16194117
8	0x3e9582ef	0.29201457
9	0x3ed41efa	0.41429883
10	0x3dc46c6d	0.09590993
11	0x3e5021ea	0.20325437
12	0x3f0c747d	0.54865247
13	0x3f05d6a0	0.52280617
14	0x3cf34abe	0.029698726
15	0x3d4fdc1c	0.050747022
16	0x3d1ff13d	0.039048422
17	0x3c849772	0.016185496
18	0xbf02cebd	-0.5109671
19	0xbef4dac0	-0.47823143
20	0xbc97637c	-0.018480055
21	0xbe6a902a	-0.22906557
22	0xbee22831	-0.4417129
23	0xbe877d64	-0.26462853
24	0xbe5d7358	-0.21626031
25	0x3e38fda8	0.18065512
26	0x3e716ade	0.23575923
27	0x3e61de9b	0.22057573
28	0x3db828a0	0.089921236
29	0x3de8ba0e	0.11363612
30	0x3c1ac3b1	0.0094460705
31	0x3deb65fc	0.11494061
32	0x3ea8b368	0.32949376
33	0x3e759b78	0.23985088
34	0x3e9a02bd	0.30080214
35	0xbd65e4b7	-0.056126323
36	0xbd832aa5	-0.06404618
37	0x3e0ef65c	0.13961166
38	0x3e3c8e08	0.18413556
39	0x3d12c364	0.03583087
40	0xbeec3d56	-0.46140546
41	0xbea573e8	-0.32314992
42	0xbee71aed	-0.4513773
43	0xbe88a84e	-0.26690906
44	0xbd0a3bdc	-0.033748493
45	0xbeba4d35	-0.3638703
46	0xbedf9b7d	-0.43673316
47	0xbe9c1329	-0.30483368
48	0xbec4a09f	-0.38403794
49	0xbc80e82e	-0.015735712
50	0xbdbcba93	-0.09215274
51	0x3ea1869f	0.3154802
52	0x3eb9f817	0.3632209
53	0x3ed694e5	0.41910473
54	0x3e9e7146	0.30945796
55	0xbe1be273	-0.15223102
56	0xbd228afa	-0.03968332
57	0x3c933e85	0.017974148
58	0x3f0d35c8	0.5516019
59	0x3efb8ea4	0.49132264
60	0xbe2b0abb	-0.16703312
61	0xbec7a6bf	-0.38994405
62	0xbde21bc3	-0.110404514
63	0xbc985192	-0.018593583
64	0x3eaaa515	0.33329073
65	0xbee353ba	-0.44399816
66	0xbea36e00	-0.3191986
67	0xbef8f406	-0.48623675
68	0xbdeee750	-0.11665213
69	0x3e954a56	0.29158276
70	0xbd768095	-0.06018122
71	0xbe850f38	-0.25988173
72	0xbe890b23	-0.2676631
73	0xbe80f6fd	-0.25188437
74	0x3ea357ca	0.31902915
75	0xbe77b182	-0.24188808
76	0xbd629bc8	-0.055324346
77	0x3e7ae9b3	0.24503212
78	0xbd16c58f	-0.0368095
79	0x3d4a8917	0.049447145
80	0xbe09cbcf	-0.13456653
81	0x3e661586	0.22469148
82	0x3e65bbd1	0.22434928
83	0xbed5175a	-0.41619378
84	0xbed732ad	-0.4203085
85	0x3db69d0e	0.089166746
86	0xbcf916a6	-0.030406307
87	0x3d4dbc72	0.050228544
88	0xbe810811	-0.25201467
89	0x3de931ed	0.11386476
90	0xbe811181	-0.25208667
91	0xbe65aa20	-0.22428179
92	0x3d53d2a1	0.051714543
93	0x3ef774d6	0.48331326
94	0x3ea331f6	0.31874055
95	0x3e7a6ae9	0.24454845
96	0x3dc79d65	0.097468175
97	0xbe5f357c	-0.21797746
98	0xbda96104	-0.082704574
99	0xbca29d9a	-0.01985054
100	0xbef91831	-0.4865127
101	0xbe0e8654	-0.1391843
102	0xbd3594df	-0.044331428
103	0x3e8d238d	0.27566186
104	0x3db9b908	0.09068495
105	0xbede3a97	-0.43404076
106	0xbec58696	-0.38579243
107	0x3de2b10a	0.11068924
108	0x3ece348c	0.40274465
109	0x3dc25abe	0.09489964
110	0xbedb3c07	-0.42819235
111	0xbe3f8a44	-0.18705088
112	0x3b608a57	0.0034262144
113	0x3eafa132	0.3430267
114	0x3e90068c	0.28129995
115	0xbf0d99c6	-0.55312765
116	0xbd10ae30	-0.03532237
117	0x3ed6a950	0.4192605
118	0x3ea6fced	0.32614842
119	0x3dec0984	0.115252525
120	0xbe652f4d	-0.22381325
121	0x3e8b0952	0.27155548
122	0x3e4cfd49	0.20018496
123	0x3e376697	0.17910229
124	0xbd981a0d	-0.07426844
125	0xbda4393f	-0.08018731
126	0xbde3dfda	-0.11126681
127	0xbeb24f12	-0.3482595
128	0xbece5f05	-0.4030687
129	0xbe402f8c	-0.18768138
130	0x3def3a92	0.11681093
131	0x3e22b3e7	0.1588894
132	0xbf1d280c	-0.6138923
133	0xbece4fbc	-0.40295208
134	0xbf0e83df	-0.5566997
135	0xbdc1db9b	-0.094657145
136	0x3e501483	0.20320325
137	0x3c5af8c7	0.013364977
138	0xbed6a2ba	-0.41921026
139	0xbeb470a0	-0.35242176
140	0x3d2f7674	0.042837575
141	0x3f01d1de	0.50710857
142	0x3ec2d4f4	0.38053095
143	0x3e0b31f9	0.13593282
144	0x3e5ab746	0.21358976
145	0x3b59daf8	0.0033242088
146	0x3e9c8ed6	0.30577725
147	0x3f063149	0.52418953
148	0x3ee6fc43	0.45114335
149	0x3eaf26fe	0.34209436
150	0xbe28b631	-0.1647575
151	0xbe22d486	-0.15901384
152	0xbd54460f	-0.051824626
153	0x3d03b563	0.032155406
154	0x3e0c4b31	0.13700558
155	0xbeaef3ec	-0.34170473
156	0x3cb55a42	0.022137765
157	0x3e92554a	0.28580695
158	0x3eb2dd94	0.34934676
159	0x3dd8f005	0.10592655
160	0x3e72ace3	0.23698764
161	0x3ea2c34e	0.3178963
162	0x3d7fb608	0.062429458
163	0x3df5bc3d	0.11998794
164	0xbd5ac26b	-0.053408068
165	0x3e395b3b	0.18101208
166	0x3e7072a9	0.2348124
167	0x3dccec27	0.1000598
168	0x3db90e65	0.09035949
169	0xbe10804c	-0.14111441
170	0x3ce456b0	0.027873367
171	0xbd2b531d	-0.04182731
172	0xbde5bf52	-0.11218132
173	0xbd6a749c	-0.057240114
174	0xbda13f2d	-0.07873378
175	0xbd6f93c3	-0.058490526
176	0x3de65305	0.112463035
177	0xbd98baee	-0.07457529
178	0x3d29138d	0.04127841
179	0xbb0e1a2b	-0.0021683078
180	0xbe8230c7	-0.2542784
181	0xbda973aa	-0.08274014
182	0x3ee762bb	0.45192513
183	0x3e7634ec	0.24043626
184	0xbde2e89b	-0.11079522
185	0xbd83b539	-0.0643105
186	0x3e9bb130	0.3040862
187	0x3ebf6ab6	0.373861
188	0xbd83cf88	-0.06436068
189	0xbeb71561	-0.35758498
190	0xbe542f2c	-0.2072112
191	0x3e8bc2d3	0.27297077
192	0x3c9f213c	0.019425027
193	0xbe14d3a1	-0.14533855
194	0xbece3600	-0.40275574
195	0xbd6601d1	-0.056154076
196	0x3e0afb28	0.13572371
197	0x3c6663ec	0.014061909
198	0xbda5125b	-0.08060142
199	0xbe80ac97	-0.25131676

conv1.bias f4 [8]
0	0xbd00fbce	-0.03149014
1	0x3abac014	0.0014247918
2	0xbe6a439a	-0.2287735
3	0xbc94d48f	-0.018167762
4	0xbe04bc52	-0.12962463
5	0xbcce3ff0	-0.025176972
6	0xbe7e5df7	-0.24840532
7	0xbd840c8c	-0.064477056

conv2.weight f4 [16, 8, 5, 5]
0	0x3d8be8ff	0.0683155
1	0xbe25f68d	-0.16207333
2	0xbe5a04ed	-0.21290942
3	0xbe2141ac	-0.15747708
4	0xbdd50c40	-0.10402727
5	0x3d8252cb	0.06363448
6	0xbd0221da	-0.031770565
7	0xbe35be42	-0.17748359
8	0xbe35ae81	-0.17742349
9	0x3c224375	0.009903778
10	0x3cf4b71f	0.029872475
11	0xbdb13099	-0.086518474
12	0x3d349fdf	0.044097777
13	0x3de56346	0.112005755
14	0xbdc6aa33	-0.09700432
15	0xbde34910	-0.1109792
16	0x3e4fabf5	0.2028044
17	0x3e8a2f9b	0.26989445
18	0x3d6a52b9	0.057207797
19	0xbe272115	-0.16321214
20	0x3d5175c2	0.051137693
21	0x3e028781	0.12747003
22	0x3dedf53b	0.116190396
23	0x3dbe23e4	0.09284189
24	0x3d811292	0.0630237
25	0x3cc8e858	0.024524853
26	0x3cd25b6f	0.025678365
27	0xbd80e627	-0.06293898
28	0xbbde75de	-0.006788953
29	0xbd8ec244	-0.06970647
30	0xbdfbcf24	-0.12295368
31	0x3d34b5b8	0.044118613
32	0xbda98178	-0.08276647
33	0xbdb4def7	-0.0883159
34	0xbdd94de4	-0.106105596
35	0xbdb04f2f	-0.08608853
36	0xbde55933	-0.11198654
37	0xbe353863	-0.17697291
38	0xbdf9e612	-0.122020856
39	0x3c8ccec2	0.017188434
40	0xbe41045d	-0.1884932
41	0x3c68a78d	0.0142001035
42	0x3de1733b	0.110083066
43	0x3e2cc61d	0.16872449
44	0x3e5c1da0	0.21495676
45	0x3e04e93f	0.12979601
46	0x3e09a08b	0.13440149
47	0x3e3ddcb6	0.18541226
48	0x3d73abe7	0.05949011
49	0x3d1c4087	0.038147476
50	0x3c3da840	0.011575758
51	0xba175541	-0.00057728967
52	0x3de842d7	0.11340874
53	0x3d73c5ca	0.0595148
54	0x3d2ecae0	0.042673945
55	0xbde278b7	-0.11058181
56	0xbd16ff96	-0.03686484
57	0x3d60c6d8	0.054877132
58	0x3e13ba24	0.14426476
59	0xbdf5c668	-0.120007336
60	0xbe03049c	-0.12794727
61	0xbddc7616	-0.107647106
62	0xbe61502a	-0.22003236
63	0xbe7ce757	-0.24697624
64	0xbe4c8275	-0.1997164
65	0xbd99c339	-0.07507939
66	0xbe18b07c	-0.14911073
67	0xbce08d29	-0.02741106
68	0x3d7c649a	0.06161938
69	0x3c947cec	0.018125974
70	0x3d96fd5b	0.073725425
71	0x3d870e59	0.065945335
72	0x3d3f9600	0.04677391
73	0xbe0bdcca	-0.13658443
74	0xbd0d7c2a	-0.03454224
75	0x3d65a0c3	0.056061517
76	0x3c88f1b6	0.01671682
77	0xbdd53bfa	-0.1041183
78	0xbe434171	-0.19067933
79	0xbe99c107	-0.3003008
80	0x3e01eac4	0.12687212
81	0xbdb62567	-0.08893853
82	0x3ca7969d	0.02045756
83	0x3e0418f0	0.12900138
84	0xbb814f1d	-0.0039461986
85	0x3d815c13	0.0631639
86	0x3d984b74	0.074362665
87	0x3de2720d	0.1105691
88	0xbd9edeef	-0.07757365
89	0xbdef12f1	-0.11673535
90	0x3e4d67d6	0.20059142
91	0x3d0e022b	0.034670036
92	0x3e069d2d	0.13145895
93	0xba2b499b	-0.00065341004
94	0x3bf1b501	0.0073763137
95	0xbe91c6b1	-0.28471902
96	0x3e4b88b5	0.19876368
97	0x3da3c8dc	0.07997295
98	0x3b1af9b8	0.002364738
99	0x3d051188	0.032487422
100	0x3d542bf3	0.051799726
101	0xbc7821d5	-0.015144785
102	0x3ccbaa09	0.024861353
103	0xbdad8984	-0.08473495
104	0xbe528803	-0.20559697
105	0xbcc9dc5d	-0.02464121
106	0xbd883aef	-0.06651866
107	0xbdd86660	-0.105664015
108	0x3d4ce591	0.05002362
109	0xbd80a26c	-0.062809795
110	0xbccfe9e8	-0.02538009
111	0x3d6e5994	0.058190897
112	0xbcf73ff8	-0.03018187
113	0x3c31b30e	0.010845913
114	0xbde326cf	-0.110913865
115	0x3ce154e3	0.027506297
116	0x3d6031f8	0.054735154
117	0xbd91489a	-0.07093926
118	0xbe80b520	-0.25138187
119	0xbe86292d	-0.2620329
120	0xbdedacf3	-0.11605253
121	0xbdf68536	-0.12037127
122	0xbe87c042	-0.2651387
123	0xbe8ac7b1	-0.27105477
124	0xbe7ac88c	-0.24490565
125	0xbd95b37a	-0.07309623
126	0x3de5b8f2	0.11216916
127	0x3d21f48b	0.039539855
128	0x3d968c13	0.07350936
129	0x3ce4563f	0.027873157
130	0xbcdbbe4a	-0.026824135
131	0x3df33847	0.118759684
132	0x3e271e16	0.1632007
133	0x3e2e17b3	0.17001228
134	0x3e6c5004	0.23077399
135	0x3d318122	0.04333604
136	0x3dc5ee5b	0.09664603
137	0x3db9f409	0.09079749
138	0x3d662615	0.05618866
139	0x3db1d516	0.08683221
140	0x3e39313b	0.18085186
141	0xbdf5dcfb	-0.12005039
142	0xbe2c3bce	-0.16819689
143	0xbd8e6f86	-0.06954865
144	0x3d0d4967	0.03449383
145	0xbf232715	-0.6373151
146	0xbeb08539	-0.3447664
147	0xbd317748	-0.043326646
148	0x3cd131a1	0.02553636
149	0x3d02d371	0.031939927
150	0x3cd54b81	0.02603698
151	0xbcea413c	-0.02859556
152	0xbcbdd21a	-0.023171473
153	0x3d2aa06a	0.04165689
154	0xbcbd37c8	-0.023097888
155	0xbd44dec1	-0.048063997
156	0xbd2e6380	-0.04257536
157	0xbd875e3a	-0.06609769
158	0xbe148d31	-0.14506985
159	0xbe19f2ac	-0.15033978
160	0xbc9245ef	-0.017855613
161	0xbd50ece4	-0.051007167
162	0x3e16e03b	0.14733975
163	0x3dd20375	0.102545656
164	0x3d85589a	0.0651104
165	0x3dd66b1d	0.10469649
166	0x3e61fb83	0.220686
167	0x3e4cd4bb	0.20003025
168	0x3e36a231	0.17835309
169	0xbc36527d	-0.011128065
170	0x3da65db0	0.08123338
171	0x3d60375f	0.054740306
172	0xbdb1cbad	-0.08681426
173	0x3bf9d47b	0.0076242066
174	0xbcd437b0	-0.02590546
175	0x3dc93967	0.09825402
176	0x3c917183	0.017754322
177	0xbd32d533	-0.043660354
178	0x3ad7cb24	0.0016463739
179	0xbd11978e	-0.035544924
180	0xbd80a66a	-0.06281741
181	0xbe084b3b	-0.13309948
182	0xbe14e454	-0.14540225
183	0xbe0b98a0	-0.1363244
184	0xbdd4f700	-0.10398674
185	0x3c186103	0.009300473
186	0xbce35d7f	-0.027754543
187	0x3d9a0807	0.07521062
188	0x3de3c7b8	0.11122078
189	0x3d37da6e	0.044886045
190	0x3d3ec1a9	0.046571407
191	0x3dec9e7f	0.11553668
192	0x3dc9cb07	0.098531775
193	0x3e198135	0.14990695
194	0xbd55f45d	-0.052234996
195	0x3e37ab08	0.17936337
196	0x3db117d9	0.08647127
197	0x3d982645	0.07429174
198	0x3c09d795	0.008413215
199	0xbd7a82d9	-0.061159942
200	0xbe14f3a1	-0.14546062
201	0x3d120958	0.035653442
202	0x3dfb8d94	0.12282863
203	0x3e4d5f15	0.20055802
204	0x3d7a8a9d	0.06116735
205	0x3de6e773	0.11274614
206	0x3e4be0f1	0.19910027
207	0x3d52d084	0.051468387
208	0x3d6856c2	0.056723364
209	0xbcb8b0d3	-0.022545254
210	0x3d9f0085	0.07763771
211	0xbbf70a87	-0.0075390968
212	0xbd724cf1	-0.05915541
213	0xbe1c0e6d	-0.15239878
214	0xbe03ad91	-0.12859179
215	0xbddcf823	-0.10789516
216	0x3eb9bcf4	0.36276972
217	0x3e8c688f	0.27423522
218	0x3a587443	0.00082570704
219	0x3b4bb185	0.0031081152
220	0x3ca8fc04	0.020627983
221	0x3e64bd53	0.22337846
222	0x3e294d2f	0.1653335
223	0x3ca6205f	0.020279108
224	0xbdb954ca	-0.09049375
225	0x3d145972	0.036218114
226	0xbe012210	-0.1261065
227	0xbda6e533	-0.08149185
228	0x3d8e7314	0.06955543
229	0x3e532b67	0.20622025
230	0xbe0d9b45	-0.13828762
231	0xbd3404b4	-0.043949798
232	0x3db5f6a9	0.08884937
233	0x3d95763d	0.07297943
234	0x3d542e5f	0.051802035
235	0xbd90e278	-0.070744455
236	0xbc9a6a34	-0.01884947
237	0xbc179314	-0.009251375
238	0xbdacaa4e	-0.084309205
239	0xbe5ad265	-0.21369322
240	0x3ca5c061	0.020233335
241	0xbde2ad50	-0.11068213
242	0x3dc3b616	0.095562145
243	0x3db735c2	0.089458
244	0x3d2903ac	0.041263267
245	0xbdd253af	-0.10269868
246	0xbdd27e51	-0.10277999
247	0xbd2be009	-0.041961703
248	0xbafe9c19	-0.0019425183
249	0xbdb6b353	-0.08920922
250	0xbda86fbb	-0.08224436
251	0xbe542c68	-0.20720065
252	0xbd9a6cf4	-0.075403124
253	0xbe00c152	-0.12573746
254	0xbd0a50ab	-0.033768337
255	0xbe5c1bd1	-0.21494986

conv2.bias f4 [16]
0	0xbd570086	-0.052490734
1	0xbe31eaca	-0.17374721
2	0x3d93ed78	0.07223028
3	0xbb988906	-0.0046550063
4	0xbdab2249	-0.08356149
5	0x3e35da2e	0.1775901
6	0xbdcbc2e5	-0.099492826
7	0xbe2f747e	-0.17134282
8	0xbde7d9ec	-0.11320862
9	0x3d93d2f9	0.07217974
10	0xbd4ed1f7	-0.050493207
11	0xbe0cbfa4	-0.1374498
12	0x3e1c4bf7	0.15263353
13	0xbe2e22bd	-0.17005439
14	0xbdfaed26	-0.12252264
15	0x3d0fa6f6	0.035071336

fc1.weight f4 [64, 256]
0	0x3d460844	0.048347726
1	0x3c17de57	0.009269319
2	0x3d19fb07	0.037592914
3	0xbdbfa9f3	-0.09358587
4	0x3e4750fc	0.19464487
5	0x3ce95827	0.028484417
6	0xbdb14183	-0.086550735
7	0xbd92321c	-0.07138464
8	0x3d9b1b62	0.07573582
9	0x3de1a673	0.11018076
10	0x35850fbd	9.913853e-07
11	0xbe0bd0c1	-0.13653852
12	0xbce41a70	-0.027844638
13	0x3d37f2b8	0.04490921
14	0x3d11fcaa	0.03564135
15	0xbab8b67f	-0.0014092474
16	0xbd6d26ae	-0.057898216
17	0x3e916a06	0.28401202
18	0x3dfe5c54	0.12419954
19	0xbd4c5dda	-0.04989419
20	0xbca0410b	-0.019562265
21	0x3e6d6c08	0.23185742
22	0x3dba2579	0.090891786
23	0xbe02480f	-0.127228
24	0x3ce1ea81	0.02757764
25	0xbe0323c2	-0.1280661
26	0x3e1077d7	0.14108215
27	0x3d07ac52	0.03312332
28	0x3d05e7c3	0.03269173
29	0x3c6a7255	0.014309485
30	0xbc977db5	-0.018492559
31	0xbd778b77	-0.06043574
32	0x3c457838	0.012052588
33	0xbcdeaca1	-0.027181925
34	0x3db2451f	0.0870459
35	0x3c9479cf	0.01812449
36	0xbea71e67	-0.32640383
37	0x3ccfb78a	0.025356073
38	0x3e1b306e	0.15155193
39	0xbd3e6ad8	-0.046488613
40	0xbd7b082b	-0.061287086
41	0xbe01fe6b	-0.12694709
42	0x3d76ca87	0.06025174
43	0x3d4c0d29	0.049817238
44	0x3d3f7008	0.0467377
45	0x3d0f3664	0.03496398
46	0x3d8fd426	0.07022886
47	0x3de2cd1e	0.11074279
48	0xbe88e347	-0.267359
49	0x3e8f3a41	0.27974132
50	0x3de9d9dd	0.11418507
51	0x3e561932	0.20908049
52	0xbc6f9002	-0.0146217365
53	0x3d918e22	0.07107188
54	0xbd9ad257	-0.075596504
55	0x3e9e3a3a	0.30903798
56	0x3e0a73bb	0.1352071
57	0x3d9613f0	0.073280215
58	0xbc8a77d9	-0.016902851
59	0xbd881d11	-0.06646169
60	0x3e3b2d72	0.18279055
61	0x3dce8deb	0.100856625
62	0x3e4d7e7f	0.20067786
63	0x3d19dc4a	0.0375636
64	0x3dc2c637	0.09510463
65	0xbcfe6857	-0.031055612
66	0xbd759aea	-0.05996219
67	0x3d7d818d	0.061891127
68	0xbd534cc9	-0.0515869
69	0x3c4b3f36	0.012405207
70	0xbd99d3bb	-0.075110875
71	0x3de0cd46	0.10976653
72	0xbc523d13	-0.012831944
73	0xbc7dc553	-0.01548894
74	0xbdbe775e	-0.09300111
75	0xbd27f981	-0.04100943
76	0xbe2fe996	-0.1717895
77	0x3da52722	0.080641046
78	0x3b8e576e	0.0043439185
79	0xbd07d018	-0.033157438
80	0xbe48a3ff	-0.1959381
81	0x3e4babc8	0.19889748
82	0x3eb74136	0.3579194
83	0x3e6058d8	0.21908891
84	0x3d1aa139	0.03775141
85	0x3e354714	0.17702895
86	0x3d12e602	0.035863884
87	0x3d4ecfb6	0.050491057
88	0x3d90677c	0.07050988
89	0x3d56f57c	0.052480206
90	0xbd18df0d	-0.037322093
91	0xbdaa1bfc	-0.08306119
92	0x3e34eed5	0.17669232
93	0x3d5adcf6	0.05343338
94	0xbc3080e4	-0.010772917
95	0xbe8277cc	-0.25482023
96	0xbca2f24e	-0.01989093
97	0xbd55aa71	-0.0521645
98	0xbd5053b8	-0.05086109
99	0x3d00e979	0.031472657
100	0xbe15940c	-0.14607257
101	0x3e51b112	0.20477703
102	0x3cbdc4eb	0.023165187
103	0xbb2d1e05	-0.0026415598
104	0x3d70562d	0.058675934
105	0x3d0ff8c8	0.035149366
106	0x3dfd67b7	0.12373298
107	0x3d59a0dc	0.053131923
108	0x3d7c64d5	0.0616196
109	0x3e1e3ccb	0.15452878
110	0x3dd44cda	0.10366221
111	0x3b05bc76	0.002040652
112	0x3d3b48dd	0.045723785
113	0x3dc21f84	0.094786674
114	0x3dc62dba	0.096766904
115	0x3cb1fd19	0.021727132
116	0x3cc541ae	0.02407917
117	0xbde33b65	-0.11095313
118	0x3e001e30	0.12511516
119	0x3e1043d3	0.14088373
120	0x3e397960	0.18112707
121	0xbda54f11	-0.08071721
122	0xbc46af51	-0.01212676
123	0xbd55892c	-0.05213277
124	0x3d9878d6	0.074449226
125	0x3d9eb2ef	0.077489726
126	0x3dd1d682	0.10245992
127	0x3c8139cc	0.01577463
128	0xbe6be1b2	-0.23035315
129	0xbe1146ef	-0.14187215
130	0xbe706184	-0.234747
131	0xbe1b84c4	-0.15187365
132	0xbe13ef55	-0.14446767
133	0x3e55cd76	0.20879158
134	0xbb79aaa7	-0.0038096101
135	0x3cd0a996	0.02547149
136	0xbe74286c	-0.23843545
137	0xbdd59c7f	-0.1043024
138	0xbd688978	-0.056771725
139	0x3d52ebad	0.05149429
140	0x3e09c05c	0.13452286
141	0x3e7730c4	0.24139696
142	0x3e1fcde9	0.15605892
143	0x3c7138ad	0.014722985
144	0x3e008ea9	0.1255442
145	0x3e820990	0.2539792
146	0xbd2382c3	-0.039919626
147	0xbe9f9f0e	-0.31176037
148	0xbddd23ad	-0.1079782
149	0x3e499a44	0.19687754
150	0x3de7721c	0.113010615
151	0xbeee6fdf	-0.46569726
152	0xbdd82827	-0.105545335
153	0xbe3ab907	-0.18234645
154	0x3c779b36	0.015112689
155	0xbea0e8c5	-0.3142759
156	0xbe3a34c0	-0.18184185
157	0x3d1163e2	0.035495646
158	0x3da2521a	0.07925816
159	0xbe099266	-0.13434753
160	0xbea65461	-0.3248625
161	0x3d997e66	0.07494812
162	0x3e8f39b8	0.27973723
163	0x3ded8cec	0.11599144
164	0xbcccbead	-0.024993265
165	0x3e61fbe6	0.22068748
166	0x3dd653fe	0.10465239
167	0xbdca1fb1	-0.09869326
168	0x3b1a8704	0.002357901
169	0x3d3e49d0	0.04645711
170	0xbb1cf077	-0.002394704
171	0xbe585044	-0.21124369
172	0xbe2c80e0	-0.16846037
173	0xbeb7a943	-0.35871324
174	0xbd846bed	-0.06465898
175	0xbd9e354c	-0.07725009
176	0xbc952b4f	-0.018209128
177	0x3e6006fa	0.21877661
178	0x3d9b7085	0.07589821
179	0x3ba902e2	0.0051578144
180	0x3e21fadb	0.1581835
181	0x3d3fbed2	0.04681284
182	0xbe55126d	-0.2080781
183	0xbd8ca572	-0.06867494
184	0xbd084391	-0.03326756
185	0x3c8e77dd	0.01739114
186	0x3d029c8b	0.031887572
187	0xbd017742	-0.031607874
188	0xbd0860a9	-0.033295307
189	0xbc9eb95c	-0.019375496
190	0x3e06cb09	0.1316339
191	0x3a9ef28c	0.0012126728
192	0xbe32f337	-0.17475592
193	0xbb8387cf	-0.0040139924
194	0xbdb0cd43	-0.086329006
195	0x3caf03a7	0.021364046
196	0xbee2c733	-0.44292602
197	0xbe0959c6	-0.13413152
198	0x3b711529	0.0036786294
199	0xbd3f783f	-0.046745535
200	0xbd44f9c1	-0.048089746
201	0xbd2073d4	-0.039172962
202	0xbdc32d82	-0.09530164
203	0x3e2e75e1	0.17037155
204	0x3d2d93f5	0.04237743
205	0x3d1ef5aa	0.038808502
206	0xbd9ae4f2	-0.07563199
207	0xbdb5b240	-0.08871889
208	0x3df85c47	0.121269755
209	0x3e15459a	0.14577332
210	0x3cc376bb	0.023860326
211	0xbe3cd15d	-0.18439241
212	0x3eb55e49	0.35423496
213	0x3e3f0f71	0.18658234
214	0x3dcae5b9	0.09907097
215	0xbd0bfe69	-0.03417817
216	0xbe09fbcf	-0.13474964
217	0x3e894a41	0.26814464
218	0x3e30121b	0.17194407
219	0x3dd74203	0.105106376
220	0xbd33f4ea	-0.04393474
221	0x3d403fa5	0.046935696
222	0x3e5817bc	0.21102804
223	0x3d4e9a86	0.050440334
224	0xbca261f6	-0.019822102
225	0xbe3b4a81	-0.1829014
226	0xbf008e6b	-0.5021731
227	0xbf17c4c4	-0.59284616
228	0xbdeec864	-0.11659315
229	0xbee72eb4	-0.4515282
230	0xbee1fe95	-0.44139543
231	0xbf0bccf7	-0.54609627
232	0xbea517f1	-0.32244828
233	0xbe3d89c4	-0.18509585
234	0xbef17380	-0.47158432
235	0xbe2eca8e	-0.17069456
236	0xbd4aff50	-0.04955989
237	0xbd2d7d37	-0.042355742
238	0x3dd1b451	0.10239471
239	0x3e256ead	0.161555
240	0xbe4a1145	-0.1973315
241	0x3df108fc	0.11769292
242	0x3e7b05b5	0.24513896
243	0x3e4d9496	0.20076212
244	0xbd40145c	-0.046894416
245	0x3e44d850	0.19223142
246	0x3db896d0	0.0901314
247	0x3e01bf6a	0.12670675
248	0x3cce79e9	0.025204616
249	0x3da4e3e5	0.0805128
250	0x3dc21380	0.094763756
251	0x3d5f4f3f	0.054518934
252	0x3db29fcf	0.08721887
253	0x3d54ae76	0.05192419
254	0x3d34aa0e	0.04410749
255	0xbe042af8	-0.12907016

fc1.bias f4 [64]
0	0xbd71ad68	-0.059003264
1	0x3c8717ab	0.016490778
2	0xbc84793e	-0.016171094
3	0x3c6bd846	0.014394825
4	0xbc67f09f	-0.01415649
5	0xbca2d200	-0.019875526
6	0x3dee8a1f	0.11647438
7	0xbd6ba792	-0.057532854
8	0xbb56646f	-0.0032713672
9	0x3bd61467	0.006533194
10	0xbd3525b2	-0.044225402
11	0xbd914d51	-0.07094825
12	0x3d9203a0	0.07129598
13	0x3da2173f	0.0791459
14	0xbd18814f	-0.037232693
15	0x3e61c00e	0.2204592
16	0xbcf323b8	-0.029680118
17	0xbd9800b8	-0.07422012
18	0x3d5af43f	0.053455587
19	0x3e1692ca	0.14704433
20	0xbc16c82c	-0.009202998
21	0x3a950fdd	0.0011372525
22	0x3cc2000d	0.023681665
23	0x3c7e620d	0.015526307
24	0x3c9bf724	0.019038744
25	0x3ca928fc	0.020649426
26	0x3dd0dbf5	0.101982035
27	0xbd786a73	-0.060648393
28	0x3cf2cd49	0.029638903
29	0x3d80a927	0.06282263
30	0xbd0851fd	-0.033281315
31	0x3d1e074a	0.03858117
32	0x3df416fb	0.11918446
33	0x3d1d8c01	0.038463596
34	0x3ce69c46	0.028150689
35	0x3be18be8	0.006883133
36	0x3bd0463f	0.0063560302
37	0xbe07883a	-0.1323556
38	0xbc83d6a4	-0.01609356
39	0xbdba5b11	-0.09099401
40	0x3cb5268d	0.022113109
41	0xbe3ab93f	-0.18234728
42	0x3de7fd74	0.11327639
43	0x3d2e393b	0.042535048
44	0xbd6efcd8	-0.0583466
45	0x3b2ac980	0.0026060045
46	0xbc0e31af	-0.008678838
47	0x3db7f87a	0.0898294
48	0x3c63004a	0.013855049
49	0x3e1261ce	0.14295122
50	0xbcf376ed	-0.029719794
51	0xbddb58ce	-0.107102975
52	0x3d247dba	0.040158965
53	0x3ba0cc33	0.004907155
54	0x3d3154c4	0.04329373
55	0x3d02fa31	0.031976882
56	0xbd878efb	-0.06619068
57	0x3c6a075e	0.014283983
58	0x3d9f25b9	0.07770867
59	0x3deda3e0	0.11603522
60	0xbd51d090	-0.05122429
61	0xbcb45e14	-0.022017516
62	0x3d34a8dc	0.04410635
63	0x3d7ca9fc	0.061685547

fc2.weight f4 [32, 64]
0	0x3e58d1fe	0.21173856
1	0x3ccb9b5a	0.02485435
2	0x3d17c0d9	0.03704915
3	0xbd8e13d3	-0.06937375
4	0xbdc67775	-0.09690753
5	0x3dd2d65a	0.102947906
6	0xbd3bc944	-0.04584624
7	0xbe014356	-0.12623343
8	0x3dd65246	0.10464911
9	0x3d018c45	0.031627912
10	0x3d5fd33c	0.05464481
11	0x3dc7e85e	0.097611174
12	0x3e1fd04e	0.15606806
13	0xbd517346	-0.051135324
14	0xbe6b44b8	-0.22975433
15	0x3d443013	0.04789741
16	0xbd6d458d	-0.057927657
17	0xbdfdfd95	-0.124018826
18	0x3ddb9b16	0.1072294
19	0xba6f2089	-0.00091219746
20	0x3cd22734	0.02565346
21	0xbdb2087a	-0.08693023
22	0x3daa40b1	0.0831312
23	0x3e041807	0.1289979
24	0x3c54f862	0.012998672
25	0x3e4c0215	0.19922669
26	0xbe6d318c	-0.23163432
27	0xbcf8c901	-0.030369284
28	0xbdb12f78	-0.08651632
29	0xbdca19de	-0.09868215
30	0xbd46875a	-0.048468925
31	0x3e11b9e4	0.14231068
32	0xbcd54398	-0.026033208
33	0x3dafd905	0.08586315
34	0x3e927f38	0.28612685
35	0x3cfc4ef0	0.03079936
36	0x3ea95607	0.33073446
37	0x3d14f06c	0.036362097
38	0x3c8c8093	0.017151153
39	0xbd0ba2e9	-0.03409091
40	0x3c4831f8	0.012218945
41	0xbdb1aae1	-0.08675171
42	0xbebf8718	-0.37407756
43	0x3e421a80	0.18955421
44	0x3e021603	0.1270371
45	0x3de8d006	0.11367802
46	0x3e231971	0.15927674
47	0x3de9ac5a	0.114098266
48	0xbd867162	-0.06564595
49	0x3da4ef4f	0.08053457
50	0xbe1e30a0	-0.15448236
51	0x3d962478	0.073311746
52	0x3be31970	0.0069305226
53	0x3de7048e	0.112801656
54	0x3db638a4	0.08897522
55	0x3eb6464b	0.35600504
56	0x3e5a8557	0.21339928
57	0xbd27a064	-0.040924445
58	0x3e6d8c16	0.2319797
59	0x3debab43	0.11507275
60	0xbe167154	-0.14691669
61	0xbe194bd7	-0.14970337
62	0x3b83b28e	0.004019088
63	0x3d77680d	0.060401965
64	0xbcc8b986	-0.024502527
65	0xbe920586	-0.2851984
66	0x3e09f425	0.1347204
67	0xbe47436a	-0.1945931
68	0x3d5b1e81	0.053495888
69	0xbe3c4cec	-0.18388718
70	0x3bbc0063	0.005737351
71	0xbda92af1	-0.082601435
72	0xbe2c3bd2	-0.16819695
73	0xbd7e3eab	-0.062071484
74	0x3e0cf9cb	0.13767163
75	0x3d8d9688	0.06913477
76	0x3e0e878c	0.13918895
77	0xbd63e12b	-0.05563466
78	0x3e3af2e9	0.18256725
79	0xbe45634e	-0.19276163
80	0xbe4c3dc2	-0.19945434
81	0xbeb1f1ca	-0.34754783
82	0xbccfdbab	-0.0253733
83	0x3bc3e95a	0.0059787454
84	0xbc01e732	-0.007928656
85	0xbd9ccb51	-0.07655967
86	0xbdec4ff2	-0.11538686
87	0x3e3006af	0.1719005
88	0xbdb13ee4	-0.086545736
89	0xbe2da42b	-0.16957156
90	0x3d48a20e	0.048982672
91	0x3cb04d7c	0.021521322
92	0x3d19329d	0.037401784
93	0xbd6be5a5	-0.057592053
94	0x3da6c3b7	0.081427984
95	0x3d0628f0	0.032753885
96	0x3da453b4	0.080237776
97	0xbd9e949c	-0.07743189
98	0xbe7189e8	-0.23587763
99	0xbc85ba7e	-0.016324278
100	0x3c652d94	0.013987917
101	0xbd9185a8	-0.07105571
102	0x3de3bd02	0.11120035
103	0x3d0e5a07	0.034753826
104	0xbda7a373	-0.08185472
105	0x3bdd83f4	0.006760115
106	0x3cf42b65	0.029805848
107	0xbe8ac819	-0.27105787
108	0xbe452a9b	-0.19254534
109	0xbe03c519	-0.12868156
110	0xbd843717	-0.0645582
111	0xbd2f6c71	-0.042828027
112	0xbe2c41e9	-0.16822018
113	0xbda7f70c	-0.08201417
114	0xbed5a706	-0.4172899
115	0x3e013924	0.12619454
116	0xbe4b4486	-0.19850358
117	0x3d7b0264	0.061281577
118	0xbea0c7b7	-0.3140237
119	0xbe11650c	-0.14198703
120	0xbe78efdc	-0.24310249
121	0xbe6e361a	-0.23262826
122	0x3c3233fe	0.010876654
123	0xbe465174	-0.1936701
124	0xbdd9ff9b	-0.10644456
125	0x3d4975ae	0.049184494
126	0xbe195a0f	-0.14975761
127	0x3e41a695	0.18911202
128	0x3e67f861	0.22653343
129	0xbda473d4	-0.08029905
130	0x3e68e75b	0.22744505
131	0x3d67bb9a	0.056575395
132	0xbdcb0ada	-0.09914179
133	0xbca8b794	-0.02059535
134	0x3e825160	0.2545271
135	0x3e2a0ee3	0.16607241
136	0xbe798847	-0.24368392
137	0xbe5b45c7	-0.21413337
138	0xbb27ec5d	-0.0025623061
139	0xbb8cdff5	-0.0042991587
140	0x3e2b3ef9	0.16723241
141	0x3d4f56fd	0.050620068
142	0x3d08cb52	0.033397026
143	0x3d335a1f	0.043787118
144	0x3e048856	0.12942633
145	0x3d7e7e66	0.06213226
146	0x3e3ca59c	0.1842255
147	0x3e476a46	0.19474134
148	0x3df6c308	0.12048918
149	0x3e25d376	0.16193947
150	0xbdccb774	-0.099959284
151	0x3e7820c6	0.24231252
152	0xbe16603d	-0.1468515
153	0xbe7176c4	-0.23580462
154	0x3e6185ab	0.22023647
155	0xbd9c2bc9	-0.07625539
156	0xbe80a96c	-0.2512926
157	0x3e9db72b	0.3080381
158	0x3d9b0f40	0.07571268
159	0xbdfed99c	-0.124438494
160	0xbdde6ca0	-0.10860562
161	0xbe84eb04	-0.25960553
162	0x3e5bd948	0.21469605
163	0xbe7e82b9	-0.24854554
164	0x3e3c24e1	0.18373443
165	0xbdcd3e93	-0.10021701
166	0xbdc0c735	-0.09412996
167	0x3e26a59b	0.16274111
168	0x3e8ee705	0.2791063
169	0x3d83f98c	0.06444082
170	0x3d8eebeb	0.069785915
171	0xbdc6e58e	-0.09711753
172	0xbe21d081	-0.15802194
173	0xbde67de8	-0.112544835
174	0x3d9dcac0	0.07704687
175	0x3e2e8938	0.17044532
176	0xbdda6386	-0.10663514
177	0xbe626046	-0.22107038
178	0x3ce7801d	0.028259331
179	0x3d02b91f	0.031914826
180	0x3bf58a72	0.0074933106
181	0xbe4d12ab	-0.20026653
182	0xbd49be60	-0.04925382
183	0xbe606630	-0.21913981
184	0x3d0a8d4c	0.033826157
185	0xbe0514c4	-0.12996203
186	0x3deca403	0.1155472
187	0x3d0f9451	0.035053555
188	0x3def639b	0.1168892
189	0x3dcf30e9	0.10116751
190	0xbe6a4d3b	-0.22881024
191	0xbc8cae6d	-0.017173016
192	0x3cace7d6	0.021106642
193	0xbe3c4806	-0.1838685
194	0xbd8bee5b	-0.06832572
195	0xbe2c7d9f	-0.16844796
196	0xbb5d619b	-0.0033780101
197	0xbea58a70	-0.32332182
198	0x3d5d93e7	0.05409613
199	0x3ddacb0f	0.106832616
200	0xbe652a59	-0.22379436
201	0xbe2e5e6f	-0.17028211
202	0x3e2c7802	0.16842654
203	0xbe882214	-0.265885
204	0x3de961fb	0.113956414
205	0xbdd03dd9	-0.101680465
206	0x3e9b9ee6	0.30394667
207	0xbd90b4c9	-0.07065732
208	0x3caf466e	0.021395888
209	0xbdd70e63	-0.10500791
210	0x3e89f9a9	0.26948288
211	0x3e6f3e22	0.23363546
212	0xbdd92d10	-0.10604298
213	0x3d3bdc40	0.045864344
214	0x3d529b1e	0.051417463
215	0xbc5d6713	-0.013513344
216	0x3e3ae884	0.1825276
217	0xbeb290f0	-0.34876204
218	0x3c100132	0.0087893475
219	0x3d40b284	0.047045246
220	0x3e24b2e6	0.1608387
221	0x3d960a05	0.0732613
222	0x3e118fb6	0.14214978
223	0x3e81f5f9	0.25382975
224	0x3e41013a	0.18848124
225	0xbe11b623	-0.14229636
226	0xbe29d04e	-0.16583368
227	0xbc5217ba	-0.01282304
228	0x3d2ee958	0.042703003
229	0x3d87c721	0.06629778
230	0x3dc68b2e	0.09694515
231	0x3dd26d09	0.10274703
232	0x3e664ae0	0.224895
233	0x3e1f72cc	0.15571135
234	0x3d18403d	0.037170637
235	0xbe34fbca	-0.17674175
236	0x3b3f8688	0.0029224474
237	0xbe16ec9d	-0.14738698
238	0x3dbec22f	0.09314381
239	0x3e10682f	0.14102243
240	0x3d77bf18	0.060484976
241	0xbe16dd9b	-0.14732973
242	0xbdabe4e2	-0.08393265
243	0x3e3960f3	0.1810339
244	0xbe56ac7f	-0.2096424
245	0x3e29d760	0.16586065
246	0x3c83e00a	0.016098041
247	0xbea5ced7	-0.3238437
248	0xbde83a4a	-0.11339243
249	0xbe118f56	-0.14214835
250	0x3e8e2478	0.27762198
251	0x3e637868	0.222139
252	0x3eae3c7c	0.3403052
253	0xbd930b00	-0.071798325
254	0xbea25742	-0.31707197
255	0x3e408d2d	0.18803854

fc2.bias f4 [32]
0	0x3e066d92	0.13127735
1	0xbda60af7	-0.0810756
2	0x3e171fb0	0.14758182
3	0xbd09f7d1	-0.0336836
4	0xbe1dbbaa	-0.1540362
5	0x3d0a5201	0.03376961
6	0x3df1548b	0.117837034
7	0x3e67cc8f	0.22636627
8	0xbd2bc588	-0.041936427
9	0x3d98ba62	0.07457425
10	0x3d554793	0.05207021
11	0x3e1b0ed8	0.15142381
12	0x3d981f22	0.07427813
13	0xbe584aa1	-0.21122219
14	0x3e436edb	0.19085257
15	0x3de8aad8	0.11360711
16	0x3ca5a5dd	0.020220691
17	0x3db9ff4f	0.090818994
18	0xbda3f618	-0.08005923
19	0xbd900497	-0.070321254
20	0x3e0f055b	0.13966887
21	0x3e039b3b	0.12852184
22	0x3daa8e2a	0.08327897
23	0xbd7b6a94	-0.061380938
24	0xbce8e7d7	-0.028430862
25	0x3e33d7f8	0.17562854
26	0x3e214c93	0.15751867
27	0x3e36f126	0.17865428
28	0xbdf00a72	-0.11720742
29	0xbdd8bc9a	-0.10582848
30	0x3e81e060	0.25366497
31	0x3de408ff	0.11134528

fc3.weight f4 [10, 32]
0	0x3d84af37	0.06478732
1	0xbdd573fe	-0.104225144
2	0xbe0db61f	-0.13839005
3	0xbeae7b62	-0.3407851
4	0xbdd0e684	-0.10200217
5	0x3c7580ea	0.014984349
6	0x3e38b2b9	0.18036927
7	0xbdbeecf9	-0.09322543
8	0x3ea1ffe3	0.3164054
9	0xbe86c830	-0.26324606
10	0x3e36b367	0.17841874
11	0xbdf53b45	-0.119741954
12	0x3de6a753	0.11262383
13	0x3e0fc112	0.14038494
14	0x3e789ab7	0.24277769
15	0xbe6fbd0e	-0.23411962
16	0x3a09ae36	0.00052520947
17	0xbe7d758c	-0.24751872
18	0x3b8b9324	0.004259484
19	0xbc5fc7a2	-0.013658436
20	0xbd373d9a	-0.044736482
21	0xbe07915f	-0.13239048
22	0xbce14549	-0.027498858
23	0x3e2142e3	0.15748172
24	0xbeaad7e6	-0.33367842
25	0x3e69323b	0.22773068
26	0x3d1439d3	0.036187958
27	0xbde5528c	-0.11197385
28	0xbe9de7a1	-0.3084078
29	0xbe19528a	-0.14972892
30	0x3eae87b4	0.34087908
31	0x3e4eba56	0.20188269
32	0xbd6e98ab	-0.058251064
33	0x3bc7bd0b	0.0060955337
34	0x3dfa876e	0.122328624
35	0xbedf20cd	-0.43579713
36	0xbd5f0aed	-0.05445378
37	0x3df92bf5	0.12166587
38	0x3d997cda	0.07494517
39	0x3e66206b	0.22473304
40	0x3de7600f	0.112976186
41	0x3d5a551e	0.05330383
42	0xbe6d7f5f	-0.2319312
43	0x3e1ee41a	0.15516701
44	0x3d97f322	0.07419421
45	0x3e462cae	0.19352981
46	0xbe900c7d	-0.28134528
47	0xbe719a79	-0.23594083
48	0x3e368603	0.17824559
49	0x3cd1cc7f	0.025610207
50	0xbe0875ee	-0.13326237
51	0xbdb78e51	-0.089626916
52	0x3e1ddd03	0.1541634
53	0x3e6d5eb5	0.23180659
54	0x3d750d4b	0.05982713
55	0x3e986963	0.29767904
56	0x3ec26d41	0.3797398
57	0xbe2b6065	-0.1673599
58	0xbee72140	-0.45142555
59	0xbdbd5fe8	-0.09246808
60	0xbe3a2fc2	-0.1818228
61	0x3cc785aa	0.024355728
62	0x3e8096f0	0.25115156
63	0xbe9e8478	-0.3096044
64	0xbebe027b	-0.37111267
65	0xbd8bb75b	-0.06822082
66	0xbe0554e4	-0.13020664
67	0xbe68900e	-0.22711203
68	0x3dd5649b	0.104195796
69	0xbe886ce7	-0.26645586
70	0xbe1ed5b0	-0.15511203
71	0xbe3f8679	-0.18703641
72	0xbdf3ece6	-0.11910419
73	0xbe77f92b	-0.24216144
74	0xbd908173	-0.070559405
75	0xbe15a94f	-0.14615367
76	0xbdf1f6b1	-0.11814631
77	0x3e1476e8	0.14498484
78	0xbe94616e	-0.28980583
79	0x3e88db0b	0.26729617
80	0x3dd7bc0b	0.10533913
81	0x3e275da6	0.16344318
82	0x3e387dd5	0.18016751
83	0x3e487688	0.19576466
84	0xbdfd87be	-0.123794064
85	0x3e02c539	0.12770547
86	0x3e36fe9e	0.17870566
87	0x3da36847	0.07978874
88	0x3d9b1491	0.07572282
89	0x3dc1a837	0.094559126
90	0xbd42a262	-0.04751814
91	0x3e37187e	0.17880437
92	0x3d9d8a2f	0.07692372
93	0xbc350c8f	-0.0110503575
94	0xbe6de29c	-0.23230976
95	0x3e8e8c2f	0.27841327
96	0xbe97341a	-0.29531938
97	0xbc5d02c9	-0.013489434
98	0xbe38b95f	-0.18039463
99	0x3dd107d7	0.102065735
100	0xbe225a41	-0.15854742
101	0xbe2cbf0c	-0.16869754
102	0xbe3f2e9b	-0.18670122
103	0xbee7487c	-0.4517249
104	0xbd994f33	-0.07485809
105	0x3d68e294	0.056856707
106	0xbe5e8430	-0.21730113
107	0x3dee903c	0.11648604
108	0x3dbb5315	0.09146706
109	0xbd27dcd7	-0.040982094
110	0x3e0cdec9	0.13756861
111	0xbe9b100c	-0.3028568
112	0xbe07ffab	-0.13281123
113	0x3e14e442	0.14540198
114	0x3e399c31	0.18125989
115	0x3e326507	0.17421351
116	0x3e921da8	0.2853825
117	0xbeb62237	-0.3557298
118	0xbe3907fe	-0.18069455
119	0xbe1ca6da	-0.15298024
120	0xbe9aa193	-0.30201396
121	0x3e386a16	0.18009219
122	0xbe938702	-0.2881394
123	0x3decf958	0.11570996
124	0xbd10cf4e	-0.03535395
125	0x3e810059	0.25195578
126	0xbe08828b	-0.13331048
127	0xbdcac1b5	-0.09900228
128	0x3dc8174f	0.09770071
129	0xbe8755cc	-0.26432645
130	0x3db86e85	0.09005455
131	0xbe17b678	-0.148157
132	0x3cfd6e8c	0.030936502
133	0x3eb82133	0.3596283
134	0xbee172c9	-0.44032887
135	0x3e19f99e	0.15036628
136	0xbdd1e455	-0.10248629
137	0x3dc527a5	0.09626702
138	0x3da6f0f8	0.0815143
139	0xbe8a501c	-0.27014244
140	0xbe71080f	-0.2353823
141	0x3e68cc4e	0.22734186
142	0xbebcab92	-0.36849648
143	0x3d6ea4dd	0.058262695
144	0xbd05fb18	-0.032710165
145	0x3daeb541	0.08530665
146	0x3dc03e74	0.09386912
147	0xbd6b0887	-0.05738118
148	0xbe2c5718	-0.16830099
149	0x3e20cf10	0.15703988
150	0x3e8b514a	0.27210456
151	0xbc022ff9	-0.007946008
152	0xbe49901c	-0.1968388
153	0xbec7d28d	-0.39027825
154	0x3e8201ea	0.25392085
155	0xbeb48d40	-0.35264015
156	0x3e584789	0.21121038
157	0xbe3d2329	-0.18470444
158	0x3e12779d	0.14303441
159	0x3d546468	0.051853567
160	0xb9500ba0	-0.00019840756
161	0x3e694648	0.22780716
162	0x3e822f6f	0.25426814
163	0x3e3a3198	0.18182981
164	0xbcb321f1	-0.02186677
165	0xbd3ba3af	-0.045810398
166	0x3de42dbf	0.11141538
167	0xbe14f40d	-0.14546223
168	0xbe649e0d	-0.22325917
169	0x3df1fe81	0.11816121
170	0xbd186920	-0.03720963
171	0x3e0772a8	0.13227332
172	0x3dd19c6c	0.10234913
173	0x3d43766d	0.04772036
174	0xbd227497	-0.03966197
175	0x3c9fc986	0.019505274
176	0xbef61e0f	-0.48069808
177	0xbe9e223b	-0.3088549
178	0xbe2f4bd7	-0.17118774
179	0xbde39863	-0.1111305
180	0xbd101e87	-0.035185363
181	0xbe47da72	-0.19516924
182	0xbdb45924	-0.08806065
183	0x3be6a4b8	0.007038679
184	0x3cfc1914	0.030773677
185	0x3e045acd	0.12925263
186	0xbe1c15dd	-0.15242715
187	0xbc865d16	-0.016401809
188	0x3df42e62	0.11922909
189	0x3d6be1b0	0.05758828
190	0xbec995cc	-0.39372098
191	0xbe123d64	-0.14281231
192	0xbdfea21f	-0.12433266
193	0x3d450dad	0.048108745
194	0x3ea0f6ee	0.31438392
195	0xbcece287	-0.02891661
196	0xbdf06a74	-0.11739054
197	0x3da91028	0.08255035
198	0x3e758df9	0.2397994
199	0xbd0d4428	-0.034488827
200	0x3e91bc38	0.28463912
201	0xbf05255e	-0.5201014
202	0xbd6414e2	-0.055683978
203	0xbe3d3abe	-0.1847944
204	0xbd627da3	-0.055295598
205	0x3e65208b	0.22375695
206	0x3e137fa8	0.14404166
207	0x3dc76795	0.097365536
208	0xbeffeb08	-0.49984002
209	0x3d5f1cca	0.054470815
210	0xbd8393ab	-0.0642465
211	0xbd2781cc	-0.04089527
212	0xbddf5c2b	-0.109062515
213	0x3d67cf29	0.056594048
214	0x3de5612d	0.112001754
215	0xbd346d76	-0.044049703
216	0xbe145b8e	-0.1448805
217	0xbe1c8158	-0.15283716
218	0x3e057d18	0.13036
219	0xbe2cd441	-0.16877843
220	0xbec02a7c	-0.37532413
221	0x3e98d997	0.29853508
222	0xbe0914b8	-0.1338681
223	0xbe244e15	-0.16045411
224	0x3e455f7e	0.19274709
225	0xbdbc9d88	-0.09209734
226	0xbeb50c97	-0.35361168
227	0xbe8e121d	-0.27748194
228	0x3be2c160	0.0069200248
229	0xbe61ee83	-0.22063641
230	0xbec39b99	-0.3820465
231	0xbbbcbfc5	-0.0057601654
232	0xbe3a5e76	-0.18200096
233	0x3e38ead0	0.18058324
234	0x3dec278f	0.11530983
235	0x3e94a051	0.29028562
236	0x3e35dd5a	0.1776022
237	0x3c0ee850	0.00872238
238	0xbdda2902	-0.10652353
239	0x3d1be96e	0.038064413
240	0x3e6bc209	0.23023237
241	0xbd789169	-0.06068555
242	0x3e35c6e2	0.17751649
243	0xbdba3823	-0.090927385
244	0xbea4614d	-0.32105485
245	0x3dc769f4	0.09737006
246	0xbc9a2889	-0.018818157
247	0xbe00b5e8	-0.12569392
248	0xbdc7670d	-0.09736452
249	0xbe5b6f6b	-0.21429221
250	0xbea7fe92	-0.3281141
251	0xbda437cc	-0.08018455
252	0x3dab2c09	0.083580084
253	0x3e0c7def	0.13719915
254	0xbe40d90f	-0.18832801
255	0x3e0b198d	0.13583966

fc3.bias f4 [10]
0	0xbe3d512e	-0.18487999
1	0x3e152f7e	0.14568898
2	0x3d8d1f20	0.06890702
3	0x3c465aff	0.012106656
4	0xbc4cbe93	-0.012496608
5	0xbcecba50	-0.028897434
6	0xbdc6a899	-0.09700126
7	0x3d1e0984	0.038583294
8	0xba7ba39f	-0.00095992716
9	0xbd847691	-0.06467927

exp_avg f4 [8, 1, 5, 5]
0	0xba9c963c	-0.0011946629
1	0xbae93663	-0.0017792698
2	0xbb6669ff	-0.0035158393
3	0xbbbfb3c4	-0.005850287
4	0xbb965338	-0.004587557
5	0xba4045bd	-0.00073346106
6	0xbb3bac7b	-0.0028636742
7	0xbc0e60a5	-0.008690034
8	0xbc1284d5	-0.008942802
9	0xbbef44e2	-0.0073019126
10	0xbb0201c4	-0.0019837478
11	0xbbf5a5fb	-0.007496593
12	0xbc2c1ac5	-0.010504429
13	0xbc065c02	-0.008200647
14	0xbb63076f	-0.0034641882
15	0xbb9fa13b	-0.004871515
16	0xbbcc5fd8	-0.0062370114
17	0xbbd15d01	-0.0063892608
18	0xbb722fc5	-0.0036954742
19	0xbb2e36b0	-0.002658289
20	0xbb6ff11d	-0.003661222
21	0xbba6f19e	-0.005094721
22	0xbb6146ef	-0.0034374555
23	0xbb2dba24	-0.0026508654
24	0xbb9838b2	-0.0046454305
25	0xb9277913	-0.00015971465
26	0x3a440a05	0.00074782997
27	0x39160ac3	0.00014309124
28	0xba10e4ce	-0.00055272586
29	0xbafa459e	-0.0019094234
30	0x3b7e5199	0.003880596
31	0x3b4700e9	0.0030365533
32	0x3a937bcd	0.0011252105
33	0xba6518f3	-0.00087393745
34	0xbb87d082	-0.004144729
35	0x3b316a5a	0.0027071447
36	0x3ae75baf	0.0017651225
37	0x3a19ebb7	0.0005871611
38	0xbadeb729	-0.0016991842
39	0xbbb14e4a	-0.005410944
40	0x3ae327ef	0.0017330627
41	0x3a69045e	0.00088888954
42	0x3983b50a	0.00025121152
43	0xbb11bab6	-0.0022236533
44	0xbbc6d28a	-0.0060675787
45	0x3964a9c9	0.00021807024
46	0x377f2e50	1.5209967e-05
47	0xba2b8976	-0.00065436156
48	0xbb7ae978	-0.003828613
49	0xbc034ce1	-0.008013935
50	0xbad4b5f0	-0.0016228538
51	0xba72cb0d	-0.00092618243
52	0xbaecfc2e	-0.0018080526
53	0xbb0b304f	-0.002123851
54	0x393cb157	0.00017995141
55	0x3a8f4118	0.0010929434
56	0x3a3854d4	0.00070316833
57	0x39499b2c	0.0001922666
58	0xbae900d0	-0.0017776731
59	0xbabae243	-0.0014258105
60	0x3ad8d2c1	0.0016542302
61	0xb98e5f7d	-0.00027155495
62	0xb9777a8c	-0.00023601408
63	0xba8a9ee0	-0.0010575913
64	0xba84148c	-0.0010076924
65	0x3ac7efab	0.0015253922
66	0x3aaa7c8a	0.0013007086
67	0x3a87d804	0.001036406
68	0x3aeba138	0.0017977124
69	0x3afb4485	0.0019170201
70	0x3afa2d60	0.0019087009
71	0x3b24fb0f	0.0025174057
72	0x3b46ce5d	0.0030335404
73	0x3ba697a0	0.005083993
74	0x3b932cb2	0.004491412
75	0x39f292f2	0.0004626732
76	0xb9a08985	-0.00030620038
77	0xbb5b7796	-0.0033488027
78	0xbb7703d5	-0.0037691493
79	0xbb6da1d6	-0.0036259792
80	0xbb608a24	-0.0034262026
81	0xbb9ad776	-0.004725392
82	0xbb61e1ba	-0.003446682
83	0xba3fd4c4	-0.00073177763
84	0xbb11cfa8	-0.0022249017
85	0xbb96245e	-0.004581972
86	0xbb7f66a7	-0.0038971098
87	0xbb682624	-0.0035423124
88	0xbb33720c	-0.002738121
89	0xbbcb95a4	-0.006212907
90	0xbb1d5e88	-0.0024012644
91	0xbb69fec9	-0.0035704842
92	0xbb85a1f0	-0.0040781423
93	0xbbe10dca	-0.006868099
94	0xbc0f6297	-0.008751533
95	0xbb300a55	-0.0026861627
96	0xbba52b51	-0.005040564
97	0xbbca49aa	-0.006173332
98	0xbbfa23d8	-0.0076336674
99	0xbc0997c5	-0.008398001
100	0x3afe2a27	0.0019391224
101	0x3b27c088	0.0025596935
102	0x3b8e8fc0	0.0043506324
103	0x3bf6c20b	0.007530456
104	0x3c11d611	0.008901135
105	0x3af8667c	0.0018951441
106	0x3b2e0651	0.0026554058
107	0x3baca258	0.0052683763
108	0x3c11980b	0.0088863475
109	0x3c23fa3d	0.010008392
110	0x3b4957cf	0.0030722504
111	0x3b779e86	0.0037783696
112	0x3befd582	0.0073191533
113	0x3c3ad97b	0.01140439
114	0x3c4620e7	0.0120928055
115	0x3b09fe90	0.0021056272
116	0x3bb99f68	0.0056647547
117	0x3c26dade	0.010184018
118	0x3c645fad	0.0139388265
119	0x3c5b708f	0.013393535
120	0x3ae0fb88	0.0017164806
121	0x3b717e67	0.0036849023
122	0x3c2ae454	0.010430414
123	0x3c51fef6	0.012817135
124	0x3c3526b8	0.011056595
125	0x3b567cee	0.0032728272
126	0x3bc7f48d	0.006102151
127	0x3b8bedce	0.004270292
128	0x3ad62b5e	0.0016339829
129	0x3aebbaf8	0.0017984798
130	0x3ad6f532	0.0016399978
131	0x3b90a87b	0.0044146157
132	0x3b87b460	0.0041413754
133	0x3b3d82a5	0.0028916982
134	0x3b89a767	0.004200864
135	0x3b8ec0bf	0.004356473
136	0x3b8385d1	0.004013755
137	0x3b550504	0.003250421
138	0x3b7c933e	0.0038539912
139	0x3b138195	0.0022507657
140	0x3be5114c	0.0069905873
141	0x3bb1955e	0.0054194173
142	0x3aae27ee	0.0013287046
143	0xbb445665	-0.0029958722
144	0xbb38ca52	-0.0028196764
145	0x3b9e9aa0	0.00484021
146	0x3b8a9969	0.0042297137
147	0x389e3eba	7.545711e-05
148	0xbbc6eef9	-0.006070968
149	0xbbbf819c	-0.005844308
150	0x3a2e6094	0.00066519645
151	0x3a74eeb2	0.00093434297
152	0x3a8ded32	0.0010828136
153	0x3aa92764	0.0012905416
154	0x3a04f28a	0.00050715415
155	0xbae9fe71	-0.0017852319
156	0xbb5d38f0	-0.0033755861
157	0xbb2299cd	-0.002481091
158	0xbb436981	-0.0029817524
159	0xbaf0650d	-0.0018340662
160	0xbb93572c	-0.0044964757
161	0xbbc205d6	-0.005921106
162	0xbb855f6a	-0.004070212
163	0xbaee4ce5	-0.0018180875
164	0xbaf3f35b	-0.0018611954
165	0xbbac57ee	-0.0052595055
166	0xbb82f224	-0.0039961506
167	0xbb2d6319	-0.0026456772
168	0xbb1296a3	-0.0022367619
169	0xbb3cc1c8	-0.0028802026
170	0xbbb65ceb	-0.005565276
171	0xbb633dc2	-0.0034674262
172	0xbaa9aee2	-0.0012945796
173	0xbb247ecb	-0.0025099989
174	0xbb5a3788	-0.003329726
175	0x3b292847	0.002581136
176	0x3b60fe21	0.003433116
177	0x3b1ca9b1	0.0023904855
178	0x3a774686	0.0009432811
179	0x3a955029	0.0011391687
180	0x3a81f05e	0.0009913554
181	0x3a6e57e6	0.00090920774
182	0x3a6fc015	0.0009145749
183	0x3a97fa89	0.0011595051
184	0x3a3dfe2d	0.0007247653
185	0x397bf4f5	0.00024028479
186	0xba3484dc	-0.00068862527
187	0x3a3034a4	0.0006721711
188	0x3aa00d95	0.0012211079
189	0x3a6f5ed7	0.00091312587
190	0xbacfeb5a	-0.0015862987
191	0xba8b3813	-0.001062157
192	0x3a593925	0.0008286408
193	0x3ae1066e	0.0017168054
194	0x3a12e310	0.0005603293
195	0xbb581527	-0.0032971592
196	0xbafe70e8	-0.0019412311
197	0x398fc0e9	0.00027418815
198	0x37db25b1	2.6124386e-05
199	0xba2e9210	-0.0006659338

exp_avg_sq f4 [8, 1, 5, 5]
0	0x3995626e	0.0002849283
1	0x39890c70	0.00026139943
2	0x39c396f9	0.00037305782
3	0x3a268f2a	0.00063537306
4	0x3a43b356	0.0007465383
5	0x39df9322	0.00042643497
6	0x39ffb9f6	0.00048775942
7	0x3a326cc4	0.00068063685
8	0x3a6e6cb6	0.00090951787
9	0x3a6b7bb1	0.000898297
10	0x39fa9f0a	0.0004780221
11	0x3a1234d8	0.00055773323
12	0x3a31c879	0.0006781887
13	0x3a305914	0.0006727141
14	0x3a1b3032	0.00059199624
15	0x39de82b3	0.00042440518
16	0x39e63d5f	0.00043914744
17	0x39c98d52	0.00038443
18	0x397a9ee8	0.00023901055
19	0x3981c021	0.00024747945
20	0x39ad6c7f	0.00033077967
21	0x39926d71	0.0002792883
22	0x392c22a5	0.00016416104
23	0x38fa3e6e	0.000119325574
24	0x392a0ed6	0.0001621799
25	0x39c7ce44	0.00038109918
26	0x39df888f	0.0004263562
27	0x39fe989a	0.00048560352
28	0x3a108f8a	0.0005514553
29	0x3a1c9871	0.0005973643
30	0x39de6287	0.00042416548
31	0x39fa17d8	0.0004770148
32	0x3a110e82	0.0005533473
33	0x3a1d27b9	0.0005994994
34	0x3a1dfd35	0.00060268055
35	0x39a7609a	0.00031924696
36	0x39880453	0.00025943163
37	0x39909b58	0.0002758156
38	0x39a7a2fe	0.0003197416
39	0x39bd5218	0.00036110054
40	0x39019efe	0.00012361628
41	0x388cf060	6.7204935e-05
42	0x389062cc	6.8848574e-05
43	0x38fb7056	0.00011989537
44	0x396bb783	0.0002247971
45	0x3848a41b	4.783655e-05
46	0x37e90a43	2.7780543e-05
47	0x3842de62	4.6460314e-05
48	0x38e253f8	0.0001079216
49	0x39732e7d	0.00023191604
50	0x3992adae	0.00027976691
51	0x39b7a770	0.0003502923
52	0x39d4c390	0.00040581496
53	0x39ff7d6c	0.00048730837
54	0x3a1652f4	0.0005734407
55	0x39906b24	0.00027545646
56	0x39a3de8b	0.0003125559
57	0x39b418d8	0.00034350785
58	0x3a05ee3e	0.0005109048
59	0x3a21a275	0.00061658706
60	0x3976b1a3	0.00023526563
61	0x39565de1	0.00020443603
62	0x398286eb	0.00024896054
63	0x39e961e8	0.0004451417
64	0x3a1ef559	0.00060637813
65	0x391c6c5c	0.00014917686
66	0x391f4f13	0.00015192879
67	0x395b40f3	0.00020909663
68	0x39de777f	0.0004243217
69	0x3a22540d	0.0006192334
70	0x392fca31	0.00016764623
71	0x393a0d11	0.0001774321
72	0x3987014d	0.00025750176
73	0x39ecc850	0.00045162672
74	0x3a1e6cde	0.0006043444
75	0x39bb76b9	0.00035755875
76	0x3a2324e1	0.0006223452
77	0x3a5e25a1	0.0008474235
78	0x3a0718ae	0.0005153519
79	0x39cdb3e7	0.00039234685
80	0x39e1bac9	0.0004305451
81	0x3a415bec	0.0007376063
82	0x3a41d508	0.000739411
83	0x399778a4	0.0002889085
84	0x39893c7f	0.0002617575
85	0x39e2c9c3	0.00043256403
86	0x3a19878a	0.0005856684
87	0x3a14250c	0.00056512724
88	0x39f111eb	0.00045980452
89	0x3a24e393	0.0006290015
90	0x39cd9936	0.00039214798
91	0x39f0c67b	0.00045924247
92	0x3a11cb91	0.0005561645
93	0x3a5d757b	0.0008447987
94	0x3a88e7e2	0.0010445083
95	0x3a19b053	0.0005862761
96	0x3a0d414f	0.0005388455
97	0x3a137adc	0.00056259125
98	0x3a4f7469	0.000791377
99	0x3a6fe101	0.00091506547
100	0x39428a25	0.00018552745
101	0x3984569f	0.0002524154
102	0x39fae665	0.00047855373
103	0x3a6f7a44	0.00091353455
104	0x3a856de5	0.0010179846
105	0x392e6e5b	0.00016635044
106	0x397c4ae0	0.00024060486
107	0x3a1f4271	0.0006075269
108	0x3a9e7407	0.0012089022
109	0x3a9d0441	0.0011979417
110	0x39534b8d	0.00020150673
111	0x39b3f7ad	0.00034326073
112	0x3a672b2b	0.0008818383
113	0x3aba0c97	0.0014194426
114	0x3a9da2cd	0.0012026668
115	0x39a1c720	0.00030856673
116	0x3a296214	0.0006461453
117	0x3aa0fdbc	0.001228265
118	0x3abc70ee	0.0014376917
119	0x3a88a880	0.0010426193
120	0x39fefc1b	0.00048634488
121	0x3a77cd85	0.0009452927
122	0x3aad1841	0.0013206081
123	0x3aa4aab7	0.0012563084
124	0x3a5629b4	0.00081696664
125	0x39d020c4	0.00039697264
126	0x39cfa9dc	0.00039608672
127	0x39801b67	0.0002443448
128	0x39078bd3	0.00012926692
129	0x3909ab85	0.00013129234
130	0x39dc5015	0.00042021336
131	0x39c60584	0.00037769612
132	0x3957f659	0.0002059577
133	0x38fed302	0.00012150967
134	0x3924e9cb	0.00015727353
135	0x39e4a967	0.00043613763
136	0x39ebef7a	0.00045001117
137	0x39a87a41	0.00032134543
138	0x3982e558	0.00024966407
139	0x39a64f5b	0.00031721112
140	0x39f441c1	0.00046588297
141	0x3a181483	0.00058013963
142	0x3a169575	0.0005744317
143	0x3a0cd640	0.0005372502
144	0x3a0b29d7	0.0005308664
145	0x39e6d945	0.00044030897
146	0x3a157083	0.00057006645
147	0x3a26551e	0.0006345081
148	0x3a27c737	0.000640023
149	0x3a18a6e3	0.0005823208
150	0x398eb65b	0.00027220216
151	0x39acc7aa	0.00032955158
152	0x39d85ad0	0.0004126639
153	0x39f9fa9f	0.00047679708
154	0x39e9ec52	0.00044617295
155	0x39c05f1a	0.0003669195
156	0x39ec91d1	0.0004512207
157	0x3a0dcdbe	0.0005409381
158	0x3a008bc5	0.000490364
159	0x39c69bf5	0.000378817
160	0x3a3b51ba	0.0007145662
161	0x3a3d23bb	0.0007215102
162	0x3a22127e	0.0006182565
163	0x39f78db8	0.000472171
164	0x39b133c2	0.00033798633
165	0x3a468f8b	0.000757449
166	0x3a3dcec5	0.0007240589
167	0x3a194b72	0.0005847729
168	0x39d85197	0.0004125952
169	0x399bc128	0.00029707816
170	0x3a106c47	0.00055092986
171	0x3a085b7a	0.00052016194
172	0x39ddc1f7	0.0004229692
173	0x39a5cda1	0.00031624458
174	0x398947ac	0.00026184076
175	0x39147d70	0.00014161109
176	0x393ab89b	0.00017807113
177	0x39751729	0.00023373649
178	0x39853bae	0.00025412202
179	0x394a9ab1	0.00019321848
180	0x3917703d	0.00014442294
181	0x39582e44	0.000206166
182	0x398e6275	0.00027157707
183	0x3976a07a	0.0002352017
184	0x3905aa71	0.00012747363
185	0x3953ec5c	0.00020210579
186	0x3989295b	0.00026161488
187	0x399435e2	0.00028268906
188	0x3916af3a	0.00014370392
189	0x385e9d27	5.3075284e-05
190	0x39730bc1	0.00023178665
191	0x39ac030c	0.00032808667
192	0x39961ab0	0.00028630113
193	0x38c91225	9.5878066e-05
194	0x37cd160a	2.4448167e-05
195	0x397c3f2f	0.0002405613
196	0x39af7477	0.00033465374
197	0x3989510e	0.00026191067
198	0x38d9b2f9	0.000103807026
199	0x381e80e7	3.7790185e-05

exp_avg f4 [8]
0	0xbbefba0d	-0.00731588
1	0xbc1edff9	-0.009696954
2	0x3b0b5422	0.0021259864
3	0xbc50cf5d	-0.012744752
4	0x3c7a619e	0.015282063
5	0xbb91b8a6	-0.0044470606
6	0xbabc4471	-0.0014363659
7	0x3af38a48	0.001858064

exp_avg_sq f4 [8]
0	0x3ab57ab3	0.0013845771
1	0x3a8e12e5	0.0010839371
2	0x3a9af28a	0.001182155
3	0x3b28c23f	0.0025750545
4	0x3b2d48c2	0.0026441072
5	0x3a89f3f5	0.0010524975
6	0x3a967afb	0.0011480743
7	0x39ffe217	0.0004880584
