lightning_logs/version_1/checkpoints/epoch=26-step=11610.ckpt (torch, 281624 bytes, 30 tensors)

conv1.weight f4 [8, 1, 5, 5]
0	0x3d990d72	0.074732676
1	0x3e4233fa	0.1896514
2	0xbddefc7e	-0.10888003
3	0x3d9ec523	0.077524446
4	0x3e075529	0.1321608
5	0x3ea59556	0.32340497
6	0x3e9796ee	0.29607338
7	0xbe255801	-0.16146852
8	0xbe32a1db	-0.17444555
9	0x3ea04ab7	0.31307003
10	0x3e9942e9	0.2993386
11	0x3e644732	0.22292784
12	0xbd0fa997	-0.035073843
13	0xbe00c93d	-0.12576766
14	0x3eba00c3	0.36328706
15	0x3df08829	0.117447205
16	0x3dc8a998	0.097979724
17	0x3e1f8e59	0.15581645
18	0xbe5f1c19	-0.21788062
19	0x3ea0bda4	0.31394684
20	0x3da9ecca	0.08297117
21	0x3e66c716	0.22536883
22	0xbe18c584	-0.14919096
23	0xbe841bb7	-0.25802395
24	0xbe7929eb	-0.24332397
25	0xbe1eecb4	-0.15519983
26	0xbdbea59a	-0.0930893
27	0xbe183e3e	-0.14867494
28	0x3c55eb3c	0.0130565725
29	0x3e8ec44c	0.27884138
30	0xbed1e8ea	-0.40998012
31	0x3d0eed17	0.034894075
32	0x3e3e5431	0.18586804
33	0x3e8e1327	0.27748987
34	0x3e487814	0.19577056
35	0xbe69b6f1	-0.22823693
36	0x3eca5e2f	0.3952498
37	0x3efa3c24	0.4887401
38	0x3e7fb465	0.24971159
39	0x3d209b4d	0.039210606
40	0x3e15ea8a	0.14640251
41	0x3f047098	0.51734304
42	0x3dd9c2f2	0.10632886
43	0xbe028817	-0.12747227
44	0xbeb090b6	-0.34485406
45	0x3e3accd8	0.18242204
46	0x3e41631b	0.18885462
47	0xbe32872e	-0.1743438
48	0xbe7161ed	-0.23572512
49	0xbe396c09	-0.18107618
50	0x3ddafb5e	0.10692476
51	0xbe916d06	-0.2840349
52	0xbebf1d39	-0.37326983
53	0xbd1f8ad7	-0.038950767
54	0xbd293a44	-0.041315332
55	0x3db301c7	0.087405734
56	0x3d3e8c26	0.046520375
57	0xbde7b5c8	-0.11313969
58	0x3e99821b	0.29982075
59	0x3ebc2761	0.36748794
60	0xbcfa8cb7	-0.030584676
61	0x3ed9cc3b	0.42538628
62	0x3ec6ed81	0.38853076
63	0x3b505df6	0.0031794286
64	0xbcbd75e0	-0.023127496
65	0x3e9a5984	0.3014642
66	0x3e1fe695	0.15615304
67	0x3dfc6c25	0.123253144
68	0x3e595527	0.2122389
69	0x3d9793a7	0.07401209
70	0xbbeaf498	-0.007170271
71	0x3a0763c7	0.00051647093
72	0xbe957e68	-0.29198003
73	0xbe425e29	-0.18981232
74	0xbd316f30	-0.043318927
75	0x3e3b09b4	0.1826542
76	0x3ea9ed33	0.3318878
77	0x3e361fdb	0.1778559
78	0xbe5a64a2	-0.21327451
79	0xbefae532	-0.49002987
80	0xbdb208db	-0.08693095
81	0x3e95a765	0.29229274
82	0x3e1fb215	0.15595277
83	0xbe2779ce	-0.16355059
84	0xbe1c74f0	-0.15278983
85	0x3d659fdd	0.05606066
86	0x3e678a74	0.2261141
87	0x3ebbf152	0.3670755
88	0x3e27170d	0.16317387
89	0x3ea6d9a4	0.32587922
90	0x3cd4ccd2	0.025976572
91	0x3e391d73	0.1807764
92	0x3e9a6ead	0.30162564
93	0x3bb1a0fe	0.005420803
94	0x3c187c77	0.0093070185
95	0x3cd6e035	0.026229957
96	0xbd220e24	-0.039564267
97	0x3c8e86d8	0.017398283
98	0xbe1943f2	-0.14967325
99	0xbe739a24	-0.23789269
100	0x3d29b43b	0.041431647
101	0x3ee5bb05	0.44869247
102	0x3ead83ca	0.3388961
103	0x3de7f792	0.11326517
104	0x3d858e04	0.06521228
105	0x3e010648	0.12600052
106	0x3e5f6552	0.21815994
107	0x3e1130f3	0.14178829
108	0x3eb55adc	0.35420883
109	0x3e70e303	0.23524098
110	0xbe4f4402	-0.20240787
111	0xbd2a5408	-0.041584045
112	0x3e1ce6cf	0.15322421
113	0x3e87e883	0.2654458
114	0x3ee5a5f6	0.4485318
115	0xbe7bc16c	-0.24585503
116	0xbe9f9b47	-0.31173155
117	0xbe4522d4	-0.19251567
118	0xbe89e5d5	-0.2693316
119	0xbe13ad9f	-0.144217
120	0xbe81f207	-0.25379965
121	0xbec22d28	-0.37925076
122	0xbef7a8a8	-0.48370862
123	0xbef57d69	-0.47947243
124	0xbdfbd99b	-0.12297364
125	0x3ed15d0a	0.40891296
126	0x3efa3caf	0.48874423
127	0x3e230269	0.15918888
128	0x3e3c881b	0.18411295
129	0xbe499004	-0.19683844
130	0x3dc3f0f5	0.09567443
131	0xbd8295a9	-0.06376202
132	0x3e1d930b	0.15388124
133	0xbd58275a	-0.052771904
134	0xbe31dd61	-0.17369606
135	0xbe7993bf	-0.24372767
136	0xbd59ca3e	-0.05317139
137	0x3ea671d7	0.32508728
138	0x3e90881d	0.28228846
139	0x3eca523f	0.39515874
140	0xbd905224	-0.07046917
141	0x3e262d9e	0.16228339
142	0xbda7d631	-0.08195151
143	0x3e3f7d03	0.18700032
144	0x3e98d5db	0.2985066
145	0xbe9b5c8b	-0.30344042
146	0xbe686937	-0.22696386
147	0xbdf7a932	-0.12092818
148	0xbe010bd5	-0.1260217
149	0xbd3b7a35	-0.045770843
150	0x3d354c70	0.04426235
151	0x3ea6c700	0.325737
152	0x3e6bdff7	0.23034655
153	0xbd063055	-0.032760937
154	0xbdb4523e	-0.08804749
155	0xbb882524	-0.004154818
156	0x3e960505	0.29300705
157	0x3e4bd0d9	0.19903888
158	0x3e213f38	0.15746772
159	0x3e1d5faf	0.15368532
160	0xbdde842e	-0.10865055
161	0x3e90db4a	0.28292304
162	0x3e3b7d4f	0.1830952
163	0x3e93dbe1	0.28878692
164	0x3e7b718d	0.24555035
165	0x3d19a86b	0.03751413
166	0x3d862d23	0.06551578
167	0xbd0b07ee	-0.03394311
168	0x3e990284	0.29884732
169	0x3dda49d1	0.106586106
170	0x3b9444ee	0.0045248186
171	0x3c55985c	0.013036814
172	0x3e99f0d5	0.30066553
173	0x3e060f46	0.13091764
174	0x3e803f89	0.25048473
175	0x3e704555	0.23463948
176	0x3eb056e0	0.3444128
177	0x3eef1907	0.46698782
178	0x3df578d3	0.11985936
179	0x3e0ad012	0.13555935
180	0x3ebaad45	0.3646032
181	0x3ee92d31	0.4554229
182	0x3ebc4cf9	0.36777475
183	0xbdf7fd9b	-0.12108918
184	0xbe1756c9	-0.147792
185	0x3eaefe2a	0.34178287
186	0x3eb8870d	0.36040536
187	0xbe5a9482	-0.21345714
188	0xbeb45dea	-0.352279
189	0xbeafd3e4	-0.34341347
190	0x3eb59a89	0.35469463
191	0xbcc0d34c	-0.023538254
192	0xbef2977b	-0.47381195
193	0xbf1e491d	-0.6183031
194	0xbda34902	-0.079729095
195	0x3df6d441	0.12052203
196	0xbe816534	-0.25272524
197	0xbf12b6d8	-0.5731025
198	0xbea3495a	-0.318919
199	0x3d912a95	0.070882

conv1.bias f4 [8]
0	0x3a26793c	0.0006350463
1	0xbd9b3fff	-0.07580566
2	0x3915636c	0.00014246785
3	0x3da6578f	0.08122169
4	0x3de09471	0.10965813
5	0xb9d8da3a	-0.00041361322
6	0xbc8590ec	-0.016304456
7	0x3dc6a304	0.096990615

conv2.weight f4 [16, 8, 5, 5]
0	0x3e20cef7	0.15703951
1	0x3c5dd1f4	0.013538826
2	0x3ce9f90d	0.02856114
3	0x3c8d0f13	0.017219102
4	0x3d440e5f	0.047865268
5	0x3dbd261f	0.09235787
6	0x3dbd46ea	0.092420414
7	0x3d877ced	0.066156246
8	0x3cb20350	0.021730095
9	0x3dd4baa1	0.10387159
10	0x3d0cda40	0.034387827
11	0xbde24bfc	-0.11049649
12	0xbda38cea	-0.079858616
13	0xbe068816	-0.1313785
14	0x3d64c4b5	0.055851657
15	0xbdca068a	-0.098645285
16	0xbe28f841	-0.16500951
17	0xbdca61c9	-0.09881932
18	0xbddb054c	-0.1069437
19	0xbd841d4e	-0.06450902
20	0xbdb193b6	-0.08670752
21	0xbcc80b33	-0.024419403
22	0xbd3d4da3	-0.04621662
23	0xbc81a2aa	-0.015824635
24	0x3d4abc69	0.04949609
25	0xbce96327	-0.028489662
26	0xbc1c741c	-0.009549167
27	0xbcb486e6	-0.02203698
28	0x3df59318	0.119909465
29	0x3d630c73	0.055431794
30	0xbc344469	-0.011002638
31	0x3e239237	0.15973745
32	0x3e25ca2b	0.16190402
33	0x3d63766d	0.05553286
34	0xbc3573ea	-0.011074999
35	0xbdac3f68	-0.08410531
36	0xb9db611e	-0.00041843293
37	0xbdb85378	-0.090002954
38	0x3d7276de	0.05919539
39	0x3cbdcec7	0.023169888
40	0xbcbddcb6	-0.023176532
41	0x3bf8409f	0.007576063
42	0xbd4aab5f	-0.04947984
43	0x3d2eabd2	0.04264433
44	0x3d69bd62	0.057065375
45	0x3dc3b244	0.09555486
46	0x3e1db735	0.15401919
47	0x3b07b3c3	0.0020706512
48	0x3c96ac2d	0.018392647
49	0xbdf69693	-0.120404385
50	0x3da4e6ef	0.080518596
51	0x3df7cdd7	0.12099808
52	0x3e0511c4	0.12995058
53	0x3de7ca6e	0.11317907
54	0x3de53286	0.11191277
55	0x3d679611	0.0565396
56	0x3e5c3309	0.21503843
57	0x3e1edd55	0.15514119
58	0x3ccd15f3	0.02503488
59	0x3de9b9f2	0.114124194
60	0xbce84c7a	-0.02835678
61	0xbde14235	-0.10998956
62	0x3c823c8b	0.01589801
63	0x3d1a6cf4	0.037701562
64	0xbd239302	-0.03993512
65	0xbe01e876	-0.12686333
66	0xbd9a5c80	-0.07537174
67	0xbb786b1b	-0.0037905637
68	0xbd920dd4	-0.07131544
69	0xbd7b7d67	-0.06139889
70	0xbbebd140	-0.0071965754
71	0x3df1422a	0.11780198
72	0xbbdd1a22	-0.0067475
73	0xbd520964	-0.051278487
74	0xbe10ec07	-0.14152537
75	0x3cdc25cc	0.026873492
76	0x3dfd01fc	0.12353894
77	0x3dadf06c	0.084931225
78	0x3da29d7f	0.07940196
79	0x3c67040d	0.014100087
80	0x3e660313	0.2246211
81	0x3e01607a	0.12634459
82	0x3d4906ff	0.049078938
83	0x3b462db3	0.0030239641
84	0x3dd908ae	0.10597359
85	0x3ce2f31c	0.027703814
86	0xbe216a98	-0.15763319
87	0xbdde00d0	-0.10839999
88	0xbddcb8bf	-0.10777425
89	0x3d1249f0	0.035715044
90	0xbd7be9f6	-0.06150242
91	0xbdae2ea6	-0.08504991
92	0xbe4a33b2	-0.19746283
93	0xbd550fbe	-0.052016966
94	0xbd0c8f17	-0.03431615
95	0x3b37f464	0.0028069252
96	0xbd1e5e94	-0.038664415
97	0xbd798728	-0.06091991
98	0x3bf5c7f8	0.007500645
99	0xbbf8a24a	-0.0075877057
100	0x3e9dddbc	0.30833232
101	0x3e5647e6	0.20925865
102	0x3e11c89c	0.14236683
103	0xbd2cf2d0	-0.04222375
104	0xbe8b4e2c	-0.27208078
105	0x3eadcdf2	0.33946186
106	0x3ecc8f4d	0.3995308
107	0x3e6eff7b	0.23339646
108	0x3e243235	0.16034777
109	0xbc0631d3	-0.00819059
110	0x3e3157ee	0.17318699
111	0x3e305bf6	0.1722258
112	0x3e3b8949	0.18314089
113	0x3d577119	0.052598093
114	0xbcd467d9	-0.025928425
115	0xbe0e2835	-0.13882525
116	0xbea1e2bf	-0.31618306
117	0xbd9f81ca	-0.07788427
118	0xbd9759f1	-0.07390202
119	0xbe21e2fe	-0.15809247
120	0xbe0d0d62	-0.13774636
121	0xbe4e1046	-0.20123395
122	0xbb591f9e	-0.0033130418
123	0x3d142105	0.036164302
124	0xbd879570	-0.066203
125	0x3d44aaae	0.048014335
126	0x3df22cad	0.118249275
127	0x3de93fd1	0.11389125
128	0x3df93c6b	0.12169727
129	0x3d1ffaaa	0.03905741
130	0x3e8e90cf	0.27844855
131	0x3e099c1d	0.13438459
132	0x3e287eef	0.16454671
133	0x3e1218e4	0.14267308
134	0x3db7872c	0.08961329
135	0x3d27fb9b	0.041011434
136	0x3dada613	0.08478942
137	0x3d9e5b1a	0.0773222
138	0x3dd2ac67	0.102867894
139	0x3cf20108	0.029541507
140	0xbde03f9c	-0.109496325
141	0xbdc2d66d	-0.09513555
142	0xbe07019c	-0.13184208
143	0xbd6018eb	-0.054711264
144	0xbdc1d445	-0.09464315
145	0x3d8f1683	0.06986716
146	0xbdd49e99	-0.103818126
147	0xbe357a45	-0.17722423
148	0xbd1b8f42	-0.03797842
149	0xbdb44132	-0.088014975
150	0xbc466f14	-0.012111444
151	0x3dc359f7	0.09538644
152	0x3d869365	0.06571082
153	0x3d7f7ff1	0.062377874
154	0x3d47c305	0.04876997
155	0x3b9b66af	0.0047424654
156	0x3c87c900	0.016575336
157	0x3d87f107	0.06637769
158	0x3dcc04ae	0.0996183
159	0x3d40d934	0.04708214
160	0xbe118b17	-0.14213215
161	0xbdc756f7	-0.09733384
162	0xbda63cad	-0.08117042
163	0xbd143363	-0.03618182
164	0xbd38d93b	-0.045129042
165	0xbcd9d746	-0.026591908
166	0xbd248c68	-0.040172964
167	0xbd2ca180	-0.042146206
168	0x3ce97760	0.028499305
169	0xbd7e8d0a	-0.062146224
170	0x3cc0fc8a	0.02355792
171	0x3cbf8db9	0.023383008
172	0x3d5fc3af	0.054629978
173	0x3d402bde	0.046916835
174	0xbdc5adf3	-0.09652319
175	0xbe3ff69a	-0.18746415
176	0xbe00e701	-0.12588121
177	0xbeaf55c7	-0.3424513
178	0xbe216966	-0.15762863
179	0xbdb0ee29	-0.086391754
180	0x3d7039ff	0.05864906
181	0x3d370621	0.04468358
182	0x3b17bf99	0.0023154973
183	0xbc52630b	-0.0128409965
184	0x3c21cbe8	0.009875275
185	0x3d0c0817	0.034187403
186	0x3cffe999	0.031239318
187	0x3dd00890	0.10157883
188	0x3c3e9aaa	0.0116335545
189	0x3dbd5e63	0.092465185
190	0x3d01cad7	0.031687584
191	0xbc08072d	-0.008302492
192	0xbc08bc2c	-0.008345645
193	0xbcf2d826	-0.029644083
194	0x3cf821cd	0.030289555
195	0xbd884db1	-0.066554435
196	0x3d06301d	0.03276073
197	0x3dc079f8	0.09398264
198	0x3df13cc2	0.11779167
199	0x3d8ac1f1	0.06775273
200	0xbd855a39	-0.06511349
201	0xbc5dc645	-0.013536041
202	0x3d4a6635	0.04941388
203	0x3e1eef36	0.15520939
204	0x3e2ce388	0.16883671
205	0x3e0385ff	0.12844084
206	0xbd89b865	-0.067246236
207	0xbb28d33a	-0.0025760666
208	0x3cc2b1a4	0.023766346
209	0x3e2aca78	0.16678798
210	0x3b98b172	0.004659825
211	0xbdb3a80e	-0.08772288
212	0xbcb86232	-0.02250776
213	0x3d72c756	0.059272133
214	0x3e6738d0	0.22580266
215	0xbde1e40e	-0.11029826
216	0xbdd60f82	-0.10452177
217	0x3d400864	0.046883002
218	0x3ddced86	0.107874915
219	0x3e266174	0.16248113
220	0xbe2d6e90	-0.16936707
221	0xbd832475	-0.06403438
222	0x3df2b771	0.11851395
223	0x3e055059	0.13018931
224	0x3e28dbb2	0.16490057
225	0xbdfcbcb2	-0.12340678
226	0xbe46f5fa	-0.1942977
227	0xbe089091	-0.13336398
228	0x3d715475	0.058918435
229	0x3c26c5fd	0.01017904
230	0x3d4c514c	0.04988222
231	0xbe136f05	-0.1439782
232	0xbe2d0089	-0.16894735
233	0xbc2ab7e4	-0.0104198195
234	0x3e08ce71	0.13360001
235	0xbd3f9d8b	-0.046781104
236	0xbdbb9ee8	-0.09161168
237	0xbdd7c7da	-0.105361655
238	0x3e69fd6c	0.22850579
239	0x3dea36df	0.11436247
240	0xbe1f3cd3	-0.15550546
241	0x3c5ab180	0.013347983
242	0x3d9c30da	0.07626505
243	0x3d5f0750	0.054450333
244	0xbd01cbe9	-0.031688605
245	0xbba2aeaf	-0.0049646716
246	0x3ca11308	0.019662395
247	0x3d0a722b	0.033800285
248	0xbdfbbced	-0.12291894
249	0xbd162348	-0.03665474
250	0xbd3b9e11	-0.04580504
251	0x3bf832a9	0.0075743985
252	0xbb972199	-0.0046121594
253	0x3dc0824d	0.09399853
254	0x3d83ae09	0.06429679
255	0x3d095a2b	0.033533257

conv2.bias f4 [16]
0	0xbdb6caba	-0.08925386
1	0x3d40ea9b	0.047098737
2	0xbd9072a3	-0.07053115
3	0xbd54cd7b	-0.051953774
4	0xbd8951fc	-0.067050904
5	0xbcb4dccf	-0.022077946
6	0x3d9f7fe3	0.07788064
7	0x3d8a35fd	0.06748579
8	0x3d668ce1	0.056286696
9	0x3d9adcb0	0.07561624
10	0x3e05a788	0.1305219
11	0xbd9c9d13	-0.07647147
12	0xbd1af1f4	-0.0378284
13	0xbb967ede	-0.0045927605
14	0xbd5728a7	-0.052529003
15	0x3aa89a9f	0.0012863463

fc1.weight f4 [64, 256]
0	0xbe0f086f	-0.13968061
1	0x3d6b997c	0.05751942
2	0x3e53a21f	0.20667313
3	0x3d9676df	0.073468916
4	0xbd2caa7a	-0.042154767
5	0x3d6626d9	0.05618939
6	0x3c877b39	0.01653825
7	0xbd93cd90	-0.07216942
8	0xbd925846	-0.07145743
9	0x3cc78e19	0.02435975
10	0xbd2cf944	-0.042229906
11	0xbd9fd4dd	-0.07804272
12	0xbd6eae47	-0.058271673
13	0x3b94be74	0.0045393053
14	0xbc2e4877	-0.010637394
15	0xbcb6d1c1	-0.022316815
16	0xbde75798	-0.11296004
17	0xbc872ba8	-0.01650031
18	0x3d26bba2	0.040706284
19	0x3d7f9075	0.062393624
20	0xbe34e744	-0.17666346
21	0x3d880d27	0.066431336
22	0x3d205410	0.03914267
23	0x3dd74cfb	0.1051273
24	0x3c57e67d	0.013177511
25	0x3c20ecea	0.00982211
26	0xbd448bdc	-0.047984943
27	0x3d0983c5	0.03357293
28	0xbd8bba46	-0.06822638
29	0x3d8ca901	0.068681724
30	0x3d9c2fd7	0.07626312
31	0xbe05edb4	-0.13078958
32	0x3def7fd3	0.116943024
33	0x3e12a941	0.14322378
34	0xbb573986	-0.0032840683
35	0xbdb13314	-0.086523205
36	0xbd617b09	-0.055048976
37	0xbd2d724c	-0.04234533
38	0x3cb0961d	0.021555955
39	0xbcc9d651	-0.024638327
40	0xbd2b6df1	-0.041852895
41	0x3d4ecc63	0.050487887
42	0x3d80b915	0.062853016
43	0xbd0d11ff	-0.03444099
44	0x3d0590c2	0.032608755
45	0x3cda8041	0.026672484
46	0x3d29963d	0.041403044
47	0x3b3f7a1e	0.0029217075
48	0x3db20bbb	0.08693644
49	0x3d81d4ba	0.063394025
50	0x3d929103	0.07156565
51	0xbda1d749	-0.079023905
52	0xbd811693	-0.06303134
53	0x3d675d47	0.05648544
54	0x3e2a9af3	0.16660671
55	0x3d6a74d8	0.057240337
56	0xbdcb888b	-0.09938153
57	0x3d6b5e3b	0.057462912
58	0x3cc75915	0.02433447
59	0xbcdfdd8e	-0.027327325
60	0x3d51c6cc	0.051214978
61	0x3dabf6f1	0.0839671
62	0xbd1a8194	-0.03772123
63	0xbce4b597	-0.02791862
64	0x3e20c324	0.1569944
65	0x3ce6de85	0.028182277
66	0xbd6366ad	-0.05551784
67	0xbc4ad284	-0.012379292
68	0xbc8b5ac8	-0.017011061
69	0x3a6b9f85	0.0008988309
70	0x3d6a0540	0.057133913
71	0x3e1c72a2	0.15278104
72	0xbdc7063d	-0.09717987
73	0x3c538976	0.012911191
74	0x3db74116	0.08947961
75	0x3d9b2e90	0.075772405
76	0x3b798919	0.0038076101
77	0x3d6e85ea	0.05823318
78	0x3d93a65d	0.07209466
79	0xbdd5392a	-0.10411294
80	0xbbd587b2	-0.0065164203
81	0x3db306a2	0.087414995
82	0xbd97f97c	-0.07420632
83	0xbdc431a1	-0.095797785
84	0x3ce9803d	0.028503532
85	0x3d785f41	0.060637716
86	0x3b7a1ce1	0.0038164186
87	0xbdde5c49	-0.10857446
88	0x3d751913	0.059838366
89	0x3d4c32c1	0.04985309
90	0xbd230062	-0.039795287
91	0xbe126869	-0.14297642
92	0x3d96fddb	0.07372638
93	0x3df546e5	0.11976413
94	0xbad1d5a6	-0.0016009107
95	0xbceb5e5d	-0.02873152
96	0xbdb00bb9	-0.08595986
97	0x3db2a222	0.08722331
98	0x3df0ae31	0.117519744
99	0x3df2c6e7	0.11854344
100	0xbdd8e10e	-0.10589801
101	0xbd2978e8	-0.04137507
102	0x3c491d9b	0.012275125
103	0xbc53b2dc	-0.012921061
104	0xbd3edbaf	-0.046596225
105	0xbe03ed71	-0.12883545
106	0xbe152d2b	-0.14568011
107	0xbcc4934d	-0.02399602
108	0x3d6a738f	0.05723911
109	0x3a044400	0.0005045533
110	0xbc875cf0	-0.016523808
111	0x3e347060	0.17620993
112	0x3e48e714	0.196194
113	0xbdba78a3	-0.09105041
114	0xbd8c8900	-0.06862068
115	0xbcecb946	-0.028896939
116	0xbe0c4675	-0.13698752
117	0x3d159a31	0.036524
118	0x3e286ab2	0.16446951
119	0xbc7e30b2	-0.01551454
120	0x3d4a5743	0.049399626
121	0xbbcb4311	-0.0062030633
122	0xbd4a5fc2	-0.049407728
123	0xbe15e081	-0.14636423
124	0x3d1250e8	0.03572169
125	0x3da2c663	0.079479955
126	0xbc212632	-0.009835767
127	0xbd12d751	-0.035849873
128	0xbe3014fd	-0.17195506
129	0x3d15bf67	0.03655949
130	0xbcee850d	-0.029116178
131	0xbc3cfc09	-0.011534699
132	0xbd21bd4f	-0.03948718
133	0x3d500b52	0.050792046
134	0x3d274a2f	0.04084223
135	0xbbcb58d8	-0.0062056594
136	0xbcd3b1f6	-0.025841694
137	0x3cb8e1e3	0.022568649
138	0x3d1ae45f	0.037815448
139	0xbd400457	-0.04687914
140	0xbd875857	-0.06608646
141	0x3cb09c26	0.021558832
142	0x3d0175d0	0.031606495
143	0x3c22d175	0.009937634
144	0x3c0032a7	0.007824576
145	0x3bc83737	0.0061100977
146	0x3d293eb7	0.041319575
147	0x3c9ec7d9	0.019382404
148	0x3b979b08	0.0046266355
149	0xbde5a9de	-0.1121404
150	0x3dcf3b10	0.10118687
151	0xbcc71bc7	-0.024305237
152	0xbcb8223b	-0.02247726
153	0xbd7df3cb	-0.062000077
154	0x3da6a1a1	0.08136297
155	0xbdb00ddf	-0.08596396
156	0xba90e326	-0.0011054024
157	0xbd9dc680	-0.077038765
158	0x3bce7caf	0.0063014845
159	0xbda482a1	-0.08032728
160	0x3e39a3e8	0.18128932
161	0x3d923bfc	0.07140347
162	0x3d3463a8	0.044040352
163	0xbe1c2960	-0.15250158
164	0x3d35c84d	0.044380475
165	0x3c9037e7	0.017604781
166	0x3e1c2ace	0.15250704
167	0x3d273c7e	0.040829174
168	0xbd1be760	-0.038062453
169	0x3cb529ca	0.022114653
170	0x3c7cca7a	0.015429134
171	0xbdca2498	-0.09870261
172	0xbd32f81a	-0.04369364
173	0xbc338e16	-0.010959169
174	0x3d5f2afa	0.054484345
175	0x3cbf53ec	0.023355447
176	0xbd268147	-0.040650632
177	0x3e0debb5	0.13859446
178	0x3e3b8147	0.18311034
179	0xbd2f2ffa	-0.042770363
180	0xbcdd7c4e	-0.027036812
181	0x3da05566	0.078287885
182	0x3d6c4b8a	0.057689227
183	0xbd896b88	-0.06709963
184	0xbb3a7626	-0.002845177
185	0x3dbda1f9	0.092594095
186	0x3dbedf8e	0.093199834
187	0x3ca52489	0.020159023
188	0xbce3384d	-0.027736807
189	0x3d134cf0	0.035962045
190	0x3de09c2f	0.1096729
191	0x3d73a3d0	0.059482396
192	0x3cef7a12	0.029233012
193	0xbcf7f03b	-0.030265918
194	0xbcc5ecab	-0.024160704
195	0xbc2855ef	-0.010274394
196	0x3c2ebaf2	0.010664688
197	0x3ccd0aab	0.025029501
198	0xbcc50451	-0.02404991
199	0x3d524bd2	0.05134184
200	0xbd4c559a	-0.049886324
201	0x3defb765	0.117049016
202	0x3d6189bb	0.05506299
203	0x3d267073	0.040634584
204	0x3d452501	0.048130993
205	0x3dba71f7	0.09103768
206	0xbda5aa7b	-0.08089157
207	0x3df1c05f	0.1180427
208	0xbd6b5e56	-0.057463013
209	0x3c8ee68c	0.017443918
210	0x3dd6c310	0.10486424
211	0x3e09cc61	0.1345687
212	0xbd81ef31	-0.0634445
213	0x3d353626	0.044241093
214	0x3bf75219	0.0075476286
215	0xbab18883	-0.0013544712
216	0x3cd453a2	0.025918785
217	0xbe039c20	-0.12852526
218	0xbe05b904	-0.13058859
219	0x3c804b85	0.01566101
220	0xbdbda4ac	-0.09259924
221	0xbdef7aed	-0.11693368
222	0xbd581fd0	-0.052764714
223	0x3ced048c	0.028932832
224	0xbde391a4	-0.11111763
225	0xbdc7fd50	-0.097651124
226	0xbd71be73	-0.059019517
227	0xbd35bd89	-0.044370208
228	0xbe3dbda2	-0.1852937
229	0xbdc85d0a	-0.09783371
230	0x3d41c778	0.04730937
231	0x3c57365f	0.013135522
232	0xbd910a6d	-0.07082067
233	0xbe18e5db	-0.14931433
234	0x3d02aee6	0.031905077
235	0xbca5ed94	-0.020254888
236	0xbdb67fd1	-0.08911098
237	0xbe090e29	-0.13384308
238	0x3dd4df75	0.103941835
239	0xbbcc1fc2	-0.0062293718
240	0x3d642828	0.05570236
241	0x3de625b1	0.11237658
242	0xbcf47fb5	-0.029846052
243	0x3d141e8f	0.036161955
244	0xbde5064b	-0.11182841
245	0x3d44a1d1	0.048005883
246	0x3d34a10e	0.044098906
247	0x3cd9ba57	0.026578112
248	0x3ac1525e	0.0014749279
249	0x3c4a7b1b	0.012358452
250	0xbd769c3f	-0.0602076
251	0xbd5c051d	-0.053715814
252	0x3dce588a	0.10075481
253	0xbd858967	-0.06520348
254	0xbcc3ac30	-0.023885816
255	0xbdcd92f0	-0.10037792

fc1.bias f4 [64]
0	0x3be12c66	0.006871748
1	0x3d0e9065	0.034805674
2	0x3de81175	0.11331455
3	0x3b460083	0.0030212707
4	0x3cf1054f	0.029421477
5	0x3d68004b	0.056640904
6	0x3cbc49b7	0.022984369
7	0x3d252ef7	0.040327992
8	0x393541a5	0.0001728596
9	0x3dadce1b	0.08486577
10	0x3d86aea1	0.065762766
11	0xbccc8a6a	-0.024968345
12	0x3cd3143c	0.025766484
13	0x3d1a57fe	0.037681572
14	0x3dac3eac	0.08410391
15	0xbd00a6c1	-0.03140903
16	0x3d2280d3	0.039673638
17	0xbd1823ee	-0.03714364
18	0x3d3ad74b	0.045615476
19	0x3d444436	0.047916614
20	0x3c06d032	0.008228349
21	0x3d231fc6	0.039825223
22	0x3b068b30	0.002052974
23	0xbb86bc07	-0.00411177
24	0x3dbc2c00	0.0918808
25	0x3cfcd7ad	0.030864561
26	0xbd691ef9	-0.056914303
27	0x3ba6970a	0.005083923
28	0x3d464203	0.048402797
29	0xbca46a89	-0.020070331
30	0x3db1ad57	0.0867564
31	0xbcc7834c	-0.0243546
32	0x3b8c7ce5	0.0042873495
33	0xbd2ca5e1	-0.042150382
34	0x3d6717f6	0.056419335
35	0xbd305642	-0.04305101
36	0x3d6c6601	0.057714466
37	0xbc9df632	-0.019282434
38	0x3d9e0858	0.07716435
39	0x3d59269f	0.053015348
40	0x3d2d1969	0.04226056
41	0x3e00149d	0.12507863
42	0xbd88bd7b	-0.066767655
43	0x3c38ea0f	0.011286273
44	0x3dbdfc24	0.09276608
45	0x3dbb8731	0.09156645
46	0x3dfb32cf	0.1226555
47	0x3db7f647	0.089825206
48	0x3dcc31ef	0.099704616
49	0xbd86b9d1	-0.065784104
50	0xbb9f01bc	-0.0048525017
51	0x3ca77c50	0.020445019
52	0xbc9fe4b8	-0.019518241
53	0x3c96234c	0.018327378
54	0x3bb88395	0.00563092
55	0xbd822e8a	-0.06356533
56	0x3c3646b6	0.011125257
57	0x39e819ea	0.00044269796
58	0x3c49d308	0.01231838
59	0x3d2ce138	0.042206973
60	0xbde00fb2	-0.10940494
61	0xbce03294	-0.027367868
62	0xbae38544	-0.0017358442
63	0xbde8f126	-0.113741204

fc2.weight f4 [32, 64]
0	0x3da60cfe	0.08107947
1	0x3eab1a98	0.33418727
2	0xbe028c4e	-0.12748834
3	0x3db5daa0	0.0887959
4	0xbb3e3d14	-0.0029028105
5	0x3dacc59c	0.084361285
6	0x3d8c184c	0.06840572
7	0xbce0d044	-0.027443059
8	0x3eaf332c	0.3421873
9	0x3e056e2b	0.13030307
10	0xbde457bc	-0.111495465
11	0x3db5a8c1	0.08870078
12	0x3c93456c	0.017977439
13	0x3d0a6225	0.033785004
14	0x3be07ce9	0.006850828
15	0x3d0ba10d	0.034089137
16	0xbe383885	-0.1799031
17	0x3b9ef393	0.0048508137
18	0x3dfbb307	0.12290006
19	0x3deae63c	0.11469695
20	0xbda3e956	-0.0800349
21	0x3d26bb35	0.04070588
22	0xbe4d4d8e	-0.20049116
23	0xbdee2638	-0.116283834
24	0xbd924b22	-0.07143237
25	0xbb67b2b4	-0.0035354318
26	0xbca0b27a	-0.019616354
27	0xbd40a73e	-0.047034495
28	0x3e72037f	0.23634146
29	0x3d9140e7	0.07092457
30	0xbdb04b9b	-0.086081706
31	0x3d0b18b5	0.03395911
32	0xbe3983c6	-0.18116674
33	0x3df8b7ae	0.12144409
34	0x3e39219c	0.18079227
35	0xbe1d301f	-0.15350388
36	0x3dace614	0.084423214
37	0xbd7f24a4	-0.062290803
38	0x3de8f6f3	0.11375227
39	0x3d8da069	0.069153614
40	0x3d989aee	0.074514255
41	0x3e1d8873	0.15384082
42	0xbe326878	-0.17422664
43	0x3d4f0216	0.0505391
44	0x3d0e4717	0.034735765
45	0xbe69b726	-0.22823772
46	0xbd6bcfd3	-0.057571243
47	0x3d99d574	0.07511416
48	0xbdb17b5c	-0.08666107
49	0x3e20560e	0.15657827
50	0x3df96193	0.12176814
51	0x3c197646	0.0093665775
52	0xbda7e823	-0.081985734
53	0xbd8e413f	-0.069460385
54	0x3e125ea9	0.14293922
55	0xbe084465	-0.1330734
56	0x3d320276	0.04345938
57	0xbe3302bf	-0.17481516
58	0xbc985fe3	-0.01860041
59	0xbdd11734	-0.10209504
60	0xbd21dc86	-0.03951695
61	0xbd9cc7cf	-0.07655298
62	0x3e312a0a	0.17301193
63	0xba05fa9f	-0.0005110893
64	0x3e4cd416	0.2000278
65	0x3d7b8190	0.061402857
66	0xbd94292e	-0.07234417
67	0x3d345675	0.044027764
68	0xbc65f0ed	-0.014034492
69	0x3e82dc61	0.2555876
70	0x3e536346	0.20643339
71	0x3e1ddcaf	0.15416215
72	0xbb9ac374	-0.004723007
73	0xbcac1c50	-0.021009594
74	0x3d83c179	0.06433386
75	0x3cac67da	0.021045614
76	0xbda373a9	-0.07981045
77	0x3ddfb1a8	0.10922557
78	0xbd8de7d5	-0.06928984
79	0x3e069f1c	0.13146633
80	0x3c934e4b	0.017981669
81	0xbe093cca	-0.13402095
82	0x3dbeb326	0.093115136
83	0x3d88a321	0.06671739
84	0xbe310ff4	-0.17291242
85	0xbd9e6195	-0.07733456
86	0xbe17038f	-0.14747451
87	0x3cd6a0b4	0.026199676
88	0xbd0156f5	-0.03157707
89	0x3e3947aa	0.18093744
90	0x3e3c9f5a	0.18420163
91	0xbe692e8c	-0.22771662
92	0xbca95654	-0.020671047
93	0x3dfa28d4	0.122148186
94	0xbe0bc897	-0.13650738
95	0x3dbba880	0.09162998
96	0x3c4fda3f	0.012686311
97	0x3e1c44ed	0.15260668
98	0x3cd3a06c	0.025833331
99	0xbd21bd53	-0.039487194
100	0x3e3b0955	0.18265279
101	0xbe03eea6	-0.12884006
102	0x3b80c62a	0.003929873
103	0xbd8bb63f	-0.0682187
104	0x3d8d048c	0.06885633
105	0xbd805e20	-0.06267953
106	0xbb865136	-0.0040990366
107	0xbe0fb4b0	-0.1403377
108	0x3c862ddb	0.016379287
109	0xbe635920	-0.22201967
110	0xbe43dd35	-0.19127353
111	0x3e0c5cd2	0.13707283
112	0xbd0d2a96	-0.03446444
113	0x3e27d721	0.16390659
114	0xbe0f002b	-0.13964908
115	0xbdca0f04	-0.09866145
116	0x3dd59c41	0.10430194
117	0x3dba2a10	0.09090054
118	0xbda56f96	-0.08077924
119	0xbda2e4b6	-0.079537794
120	0xbb0cf6cf	-0.0021509414
121	0x3cdd2687	0.02699591
122	0x3dd5d00c	0.104400724
123	0xbe033636	-0.12813649
124	0xbd2e1ace	-0.04250603
125	0xbdac45cc	-0.0841175
126	0xbe1f0525	-0.15529306
127	0x3e60b063	0.21942286
128	0xbd4ac0f3	-0.049500417
129	0xbbfd7d9b	-0.0077359206
130	0xbe781289	-0.2422582
131	0x3e58644b	0.21132009
132	0x3ddabde0	0.10680747
133	0xbda6f86f	-0.08152854
134	0xbea38e2e	-0.31944412
135	0x3cf04bd4	0.029333033
136	0xbe379ac6	-0.17930135
137	0xbe09602a	-0.1341559
138	0x3d49990f	0.049218234
139	0xbe069a22	-0.13144735
140	0xbe0c342f	-0.13691781
141	0x3dc0eeba	0.094205335
142	0x3d507ecb	0.05090217
143	0x3df2b339	0.1185059
144	0x3e248d22	0.16069463
145	0x3c21526a	0.009846309
146	0x3d3e7528	0.046498448
147	0x3d0a0b31	0.03370208
148	0x3e3807b3	0.17971687
149	0xbc9bc835	-0.019016365
150	0xbda8eca8	-0.082482636
151	0x3d3b4995	0.04572447
152	0x3bb1b32c	0.0054229703
153	0xbb75d84b	-0.0037512954
154	0xbd03031f	-0.0319854
155	0xbe0a52bd	-0.13508125
156	0x3c51a2e5	0.012795185
157	0x3e4607ad	0.19338866
158	0x3e3b37cc	0.18283004
159	0x3b6bf5cc	0.003600466
160	0xbdbf34aa	-0.09336217
161	0xbda661a4	-0.08124092
162	0x3de6a967	0.1126278
163	0x3cdb6346	0.026780736
164	0x3dd63ada	0.10460444
165	0x3e0c79f4	0.13718396
166	0x3e0c7d9c	0.13719791
167	0x3e23f353	0.1601079
168	0x3d0c1a5a	0.03420482
169	0xbd4ab422	-0.049488194
170	0xbd7fbc0c	-0.062435195
171	0xbe3b2597	-0.18276058
172	0x3d11942c	0.0355417
173	0xbe722164	-0.2364555
174	0xbc457019	-0.012050652
175	0x3d4d561a	0.05013094
176	0xbe917e32	-0.28416592
177	0xbe57b21c	-0.21064037
178	0xbe24924d	-0.16071434
179	0xbdce97cb	-0.10087546
180	0x3db1d56b	0.08683284
181	0x3d80a09e	0.06280635
182	0xbd34094e	-0.043954186
183	0x3e13d389	0.14436163
184	0xbdcd8753	-0.10035577
185	0x3e31ff03	0.17382436
186	0xbbfea7fa	-0.007771489
187	0x3d9b6c4e	0.07589017
188	0x3e91a307	0.28444692
189	0xbe233785	-0.15939148
190	0xbc37d940	-0.01122123
191	0xbd6c07cb	-0.05762462
192	0xbdec6b4a	-0.11543901
193	0x3c9948f2	0.01871154
194	0xbd5e07d0	-0.05420667
195	0xbe279b60	-0.16367865
196	0xbc811c92	-0.015760694
197	0xbeb0c8ec	-0.3452829
198	0xbe2701b8	-0.1630925
199	0xbdfa6546	-0.122263476
200	0xbe4737d9	-0.19454898
201	0xbe799699	-0.24373855
202	0x3e613300	0.21992111
203	0xbd775f55	-0.06039365
204	0x3e15aa00	0.14615631
205	0x3e0eaee5	0.13933904
206	0x3d2a098d	0.041513015
207	0xbe022326	-0.1270872
208	0x3e16b800	0.14718628
209	0x3d0765c2	0.03305603
210	0xbdbd2e66	-0.092373654
211	0x3ca48710	0.020083934
212	0xbb932efe	-0.004491686
213	0x3e123f9c	0.14282078
214	0x3e0ee18f	0.13953231
215	0x3d028c15	0.031871874
216	0x3d819c10	0.06328595
217	0x3e1a804b	0.15088002
218	0x3e1b96c3	0.1519423
219	0xbdc9a7a5	-0.09846429
220	0x3d1458bf	0.036217447
221	0xbde04dc0	-0.1095233
222	0x3e003697	0.12520824
223	0x3e131d98	0.14366758
224	0x3dc57a9e	0.09642528
225	0xbc383650	-0.011243418
226	0x3e12bb57	0.14329277
227	0x3c66fc82	0.0140982885
228	0x3e449ae8	0.19199717
229	0x3d684a58	0.056711525
230	0xbdb404d2	-0.08789982
231	0x3e59958e	0.21248457
232	0x3e160d72	0.14653566
233	0x3d5c048d	0.053715277
234	0x3bcb02ba	0.0061953934
235	0xbda3e444	-0.080025226
236	0x3dcf8a40	0.10133791
237	0x3d82c8f2	0.063859835
238	0xbdb01f5d	-0.08599732
239	0xbc8235ef	-0.015894858
240	0xbd6b882f	-0.05750292
241	0xbe607501	-0.21919633
242	0x3cd79d52	0.026320133
243	0x3dcf1699	0.10111732
244	0xbe069841	-0.13144018
245	0x3e562eed	0.20916338
246	0xbe1e74d7	-0.15474258
247	0x3d0b947e	0.03407716
248	0x3de7eb76	0.113242075
249	0xbe0e1dfd	-0.13878627
250	0x3dcc38c3	0.09971764
251	0x3d2c15a0	0.04201281
252	0xbde46247	-0.111515574
253	0xbdca49ba	-0.098773435
254	0xbd22ff08	-0.039793998
255	0x3dc5e297	0.09662359

fc2.bias f4 [32]
0	0x3cd3ed6b	0.025870046
1	0xbbfbde7f	-0.0076864357
2	0xbd574221	-0.0525533
3	0x3d38d674	0.045126393
4	0x3ddb01fd	0.106937386
5	0x3e1bad70	0.1520288
6	0xbe0607e9	-0.13088955
7	0x3da2fad8	0.07958001
8	0xbdb876b0	-0.09007013
9	0x3e01e77f	0.12685965
10	0xbd46d363	-0.048541438
11	0x3d4d427e	0.05011224
12	0x3d8dd98a	0.06926258
13	0xbd5c7d40	-0.053830385
14	0x3e2bce3d	0.16777892
15	0x3b76cdf6	0.0037659383
16	0xbdede8ae	-0.11616646
17	0x3dc66ccd	0.09688721
18	0xbe2bce28	-0.16777861
19	0xbc2d985a	-0.0105954055
20	0xbdfe4fef	-0.1241759
21	0x3d45f215	0.04832657
22	0x3dbffee8	0.093747914
23	0x3e1d83e8	0.1538235
24	0xbd66bf7c	-0.056334957
25	0x3db933d3	0.09043088
26	0x3dc5e22c	0.096622795
27	0xbcd1182f	-0.025524227
28	0x3d07be7b	0.03314064
29	0x3d878067	0.06616288
30	0x3e068b02	0.13138965
31	0xbcb8b6ce	-0.022548106

fc3.weight f4 [10, 32]
0	0xbe5abbd3	-0.21360712
1	0xbea74e70	-0.3267703
2	0x3e6abdeb	0.2292401
3	0xbe025daf	-0.1273105
4	0x3e756d5f	0.23967503
5	0x3e312175	0.17297919
6	0x3df61506	0.12015729
7	0x3e20c831	0.15701367
8	0xbea64215	-0.32472292
9	0xbe5b5ab5	-0.2142132
10	0x3e34c01c	0.17651409
11	0x3bb86c73	0.0056281625
12	0x3e45c1a9	0.19312157
13	0xbeb9a598	-0.3625915
14	0x3cf5f718	0.03002505
15	0xbcb6b663	-0.022303766
16	0xbe26f879	-0.16305722
17	0x3e3156c9	0.17318262
18	0xbda613ee	-0.0810927
19	0x3cd548ad	0.026035631
20	0xbde434c7	-0.11142879
21	0x3d1603c5	0.03662469
22	0xbe27930c	-0.16364688
23	0xbea6525f	-0.3248472
24	0xbde5de21	-0.11224008
25	0xbe7226bb	-0.23647587
26	0xbe2b537c	-0.16731066
27	0x3e6e3560	0.23262548
28	0xbd886337	-0.06659549
29	0x3e2378f8	0.15964115
30	0x3e01d01f	0.12677048
31	0xbdcb0d3d	-0.099146344
32	0x3dec335d	0.11533234
33	0x3e3aa511	0.1822703
34	0xbe065ffb	-0.13122551
35	0xbe1f9053	-0.15582399
36	0x3dae8393	0.085211895
37	0xbe9c80df	-0.3056707
38	0x3e3e7ed1	0.18603064
39	0xbe622d2b	-0.22087543
40	0xbe589ca6	-0.21153507
41	0xbe4a1321	-0.1973386
42	0x3dd9166a	0.10599978
43	0xbe78c2d4	-0.24293071
44	0x3e78be27	0.24291287
45	0x3e00e471	0.12587143
46	0xbe468595	-0.19386895
47	0x3e0f7d5f	0.14012669
48	0xbea3095c	-0.31843078
49	0x3e801531	0.25016168
50	0xbb877a69	-0.0041344655
51	0xbe88d115	-0.26722017
52	0x3e2946db	0.16530935
53	0x3e3457c8	0.17611611
54	0x3c29675d	0.010339585
55	0x3e8624a7	0.2619984
56	0xbde4bb5c	-0.111685485
57	0x3e46df4b	0.19421117
58	0x3e367b67	0.17820512
59	0x3d2086ba	0.039190985
60	0xbdb918a5	-0.09037904
61	0xbe0aa277	-0.13538538
62	0xbd4365b7	-0.047704425
63	0xbdca166c	-0.09867558
64	0x3eaa720d	0.3329014
65	0x3dc894f6	0.09794037
66	0x3e3f4e0a	0.18682113
67	0xbe180344	-0.14844996
68	0x3e974f23	0.29552564
69	0x3e402715	0.18764909
70	0xbd19d264	-0.03755416
71	0x3e395129	0.18097366
72	0xbc34df03	-0.011039498
73	0xbe083bcc	-0.1330406
74	0xbcae72ed	-0.021295035
75	0xbd9118f8	-0.070848405
76	0x3e064fa3	0.13116316
77	0x3d98b800	0.0745697
78	0xbe5f8f53	-0.21832018
79	0xbe6d32b4	-0.23163873
80	0x3e2dddab	0.16979091
81	0xbe42c179	-0.19019116
82	0x3c2aa13f	0.010414421
83	0x3e012080	0.12610054
84	0x3d27cead	0.040968586
85	0x3dd12dbb	0.102138005
86	0xbe1bfca8	-0.152331
87	0x3d937253	0.0719954
88	0x3ccebade	0.02523559
89	0xbd03e060	-0.032196403
90	0xbb2089ac	-0.0024496121
91	0xbe6c6b8d	-0.23087902
92	0xbeb8bc35	-0.3608109
93	0x3db6ed54	0.089319855
94	0xbea21a8b	-0.31660876
95	0xbd9c694f	-0.076372735
96	0xbe84af8c	-0.25915182
97	0x3cf0329c	0.029321007
98	0x3e773752	0.24142197
99	0x3e718281	0.2358494
100	0x3b16cd1c	0.0023010438
101	0xbc94f501	-0.018183233
102	0x3dcb71fc	0.0993385
103	0xbe61aef1	-0.22039391
104	0xbe8c1474	-0.27359354
105	0xbe6adf04	-0.22936636
106	0xbd5bec09	-0.053691898
107	0xbe5a73a6	-0.21333179
108	0xbdee0f19	-0.116239734
109	0x3e21e454	0.15809757
110	0xbe12704d	-0.14300652
111	0xbe0d3c56	-0.13792548
112	0x3e2f5314	0.17121536
113	0xbd8c050d	-0.06836901
114	0x3e52b412	0.20576504
115	0xbc46d0b5	-0.012134721
116	0x3cb57dcd	0.022154713
117	0xbe160037	-0.1464852
118	0x3d33ba17	0.04387864
119	0xbe1d4d03	-0.15361409
120	0x3dc598f1	0.09648312
121	0xbd6fb940	-0.058526278
122	0x3e618391	0.22022845
123	0x3e0d0057	0.13769661
124	0xbdda39ab	-0.106555305
125	0xbdd73795	-0.10508648
126	0x3e1130e2	0.14178804
127	0x3dd84146	0.10559325
128	0xbe0f5737	-0.13998114
129	0xbcab6e27	-0.020926548
130	0xbe636357	-0.22205864
131	0x3d2a0217	0.0415059
132	0xbe4e9776	-0.20174965
133	0xbe440301	-0.19141771
134	0xbdb2fb39	-0.08739323
135	0x3d6bd462	0.05757559
136	0x3e908296	0.2822463
137	0x3e5763cc	0.21034163
138	0x3e87f8ce	0.2655701
139	0xbe6746f9	-0.22585668
140	0xbdd3ca16	-0.10341279
141	0xbca50688	-0.020144716
142	0x3e33a47b	0.17543213
143	0x3e2456b6	0.16048703
144	0xbe145050	-0.14483762
145	0xbdfaaca5	-0.122399606
146	0xbd837d90	-0.064204335
147	0x3e19ac84	0.15007216
148	0x3db957f5	0.090499796
149	0x3e3aea7c	0.18253511
150	0x3e43366f	0.19063734
151	0x3dd0ccb1	0.10195292
152	0x3e40878b	0.18801706
153	0xbd8e228e	-0.069401845
154	0xbd94264d	-0.07233868
155	0xbe58116c	-0.21100396
156	0xbde70320	-0.11279893
157	0xbe094398	-0.13404691
158	0xbe66b074	-0.22528249
159	0x3e0dd6da	0.1385149
160	0x3e8066e4	0.250785
161	0xbe820d08	-0.25400567
162	0xbc5eaa76	-0.013590446
163	0x3e4c46c2	0.19948867
164	0xbdde97a5	-0.10868768
165	0x3dc18226	0.09448652
166	0xbe9e4d8a	-0.30918533
167	0xbde384ce	-0.11109315
168	0xbe33b479	-0.17549314
169	0x3e3df916	0.1855205
170	0xbe850187	-0.25977728
171	0xbe787e5e	-0.24266955
172	0xbdb16fdf	-0.08663916
173	0x3e34b8d8	0.17648637
174	0x3dafeeec	0.085904926
175	0xbde51ff2	-0.11187734
176	0xbd4fa6a1	-0.05069602
177	0x3e4244ff	0.18971632
178	0xbe860da3	-0.2618228
179	0xbde23c85	-0.110466994
180	0xbe29fae5	-0.16599615
181	0xbe93f856	-0.28900403
182	0xbe46fde1	-0.19432785
183	0x3e8fe06d	0.2810091
184	0xbe61f1b3	-0.22064857
185	0x3d4b8ae5	0.049693007
186	0x3e2940f2	0.16528681
187	0x3d1e4b95	0.0386463
188	0xbd63bae1	-0.055598143
189	0x3df4b01d	0.119476534
190	0x3e641e36	0.2227715
191	0x3de11277	0.1098985
192	0x3cebd867	0.028789712
193	0xbe800d22	-0.2501002
194	0x3da48184	0.08032516
195	0xbe817728	-0.25286222
196	0xbec9cec2	-0.39415556
197	0xbd378ab9	-0.04481003
198	0xbdd7236b	-0.10504802
199	0xbe404f5f	-0.18780278
200	0xbe61a807	-0.22036754
201	0xbe08b13b	-0.13348858
202	0x3e37725c	0.17914718
203	0xbc8f1873	-0.017467713
204	0x3da6257d	0.08112619
205	0x3e22c379	0.1589488
206	0x3e5d7677	0.21627222
207	0x3e5febc6	0.21867284
208	0x3e1c313d	0.15253158
209	0xbe4ed16f	-0.2019708
210	0x3db3af2f	0.08773648
211	0x3e728832	0.23684767
212	0x3cb8885e	0.022525962
213	0xbe68ca53	-0.2273343
214	0xbe028817	-0.12747227
215	0xbe3d2a3f	-0.18473147
216	0xbe73239d	-0.23744054
217	0x3e146778	0.14492595
218	0xbe760ecf	-0.24029087
219	0x3e2aafa2	0.16668561
220	0x3e2986d0	0.16555333
221	0x3e65aadd	0.2242846
222	0xbd9dd597	-0.07706755
223	0xbea8c2eb	-0.3296121
224	0xbcccfb72	-0.025022242
225	0xbc9d01ff	-0.01916599
226	0xbe78e4f4	-0.24306089
227	0x3c27f74f	0.010251834
228	0x3dc3b470	0.095559
229	0x3d8960a5	0.067078866
230	0x3e1e02c8	0.15430748
231	0x3e076b33	0.13224487
232	0xbdc724c3	-0.097238086
233	0xbd90a807	-0.07063299
234	0x3e89f460	0.26944256
235	0x3dfa6759	0.12226743
236	0x3d8065d3	0.062694214
237	0xbca77ff6	-0.020446759
238	0xbe0a27a9	-0.13491692
239	0xbb44608b	-0.002996477
240	0xbd59cfe7	-0.053176787
241	0xbe7840e8	-0.2424351
242	0x3df4397e	0.11925028
243	0xbee963d7	-0.45583984
244	0x3e91eae1	0.2849951
245	0x3dfd6ed3	0.12374654
246	0xbe86fe92	-0.26366097
247	0x3e828d5e	0.2549848
248	0x3d911f15	0.070860066
249	0xbe360a1c	-0.17777294
250	0x3e0d854c	0.1382038
251	0x3e0d0aa5	0.13773592
252	0x3e1648ae	0.14676163
253	0xbe3ed640	-0.18636417
254	0x3c945454	0.018106617
255	0x3da45de1	0.080257185

fc3.bias f4 [10]
0	0x3e003406	0.12519845
1	0x3e0fc4be	0.14039895
2	0xbd8fdd1b	-0.070245944
3	0xbd3ba7b0	-0.045814216
4	0xbe1feb39	-0.15617074
5	0x3dd0d719	0.101972766
6	0x3d99bae7	0.07506352
7	0xbd86695d	-0.06563065
8	0xbde66943	-0.11250546
9	0xbe247689	-0.16060843

exp_avg f4 [8, 1, 5, 5]
0	0xbb2270de	-0.0024786512
1	0xbb0a826f	-0.0021134873
2	0xbad317bb	-0.0016105095
3	0x3814200a	3.531579e-05
4	0x3ad2b54d	0.001607576
5	0xbb651ead	-0.003496091
6	0xbb265218	-0.0025378522
7	0xbad02619	-0.0015880495
8	0xb82bce02	-4.0961437e-05
9	0x3a921470	0.0011145007
10	0xbb88e3f5	-0.004177565
11	0xbb32c5d0	-0.002727855
12	0xbadbd4e5	-0.0016771822
13	0xb96a0155	-0.00022316475
14	0x3a9917d8	0.001168008
15	0xbb8736ae	-0.0041263914
16	0xbb408269	-0.0029374606
17	0xbad2f2db	-0.0016094105
18	0x3967da0b	0.00022111104
19	0x3b03d7ca	0.0020117634
20	0xbb82b68c	-0.0039890464
21	0xbb12a68c	-0.0022377102
22	0xba2fd401	-0.0006707311
23	0x3aa482b2	0.0012551157
24	0x3b29e381	0.0025922956
25	0x3aae89f3	0.0013316259
26	0x3aa19b29	0.0012329567
27	0x3ac43688	0.0014969865
28	0x3a31f20c	0.0006788082
29	0xb81a156e	-3.673642e-05
30	0x3aad1d8d	0.0013207659
31	0x3ae00a68	0.0017092945
32	0x3b03d3ab	0.0020115178
33	0x3a889c32	0.0010422526
34	0x391f7190	0.00015205727
35	0x3a7ed402	0.00097209227
36	0x3ab2df26	0.0013646826
37	0x3b1d63ab	0.0024015706
38	0x3ab91d7e	0.0014123169
39	0x39d93d93	0.00041435342
40	0x3aa59e84	0.0012635742
41	0x3aee70a9	0.0018191534
42	0x3af86e01	0.0018953682
43	0x3aa298bb	0.0012405136
44	0x3a55fb2f	0.00081627344
45	0x3b101574	0.0021985443
46	0x3b30695c	0.0026918268
47	0x3b24b653	0.0025133088
48	0x3a9fcc32	0.0012191592
49	0x3a4ddf38	0.00078533916
50	0x3b24c8b5	0.0025144045
51	0x3b15824f	0.0022813266
52	0x3b20e2b1	0.002454918
53	0x3b31508c	0.0027056066
54	0x3b054c20	0.0020339563
55	0x3b2f1587	0.0026715712
56	0x3b4381c9	0.0029831997
57	0x3b36bcd5	0.0027883549
58	0x3b6383d3	0.0034716025
59	0x3b5d75f9	0.003379224
60	0x3b34b1e4	0.0027571851
61	0x3b70c32c	0.0036737425
62	0x3b6302af	0.003463905
63	0x3b8677ba	0.004103628
64	0x3b7bc964	0.0038419599
65	0x3b57ddde	0.003293864
66	0x3b8dbf6c	0.004325798
67	0x3b898135	0.004196311
68	0x3b96c568	0.0046011694
69	0x3b8e90c6	0.0043507544
70	0x3b84f14f	0.0040570865
71	0x3b8eb7de	0.004355415
72	0x3b7d9e09	0.0038698933
73	0x3b8cbef1	0.004295223
74	0x3b81c89e	0.003960683
75	0xbb54e0a9	-0.003248254
76	0xbac5f2a6	-0.0015102222
77	0xb9eef030	-0.0004557385
78	0x3a19b5b7	0.00058635644
79	0x3a142015	0.00056505325
80	0xbb3a439e	-0.002842165
81	0xbaadd20b	-0.001326145
82	0xba54f5a2	-0.00081237603
83	0x3886889c	6.4150634e-05
84	0x397e53c1	0.00024254528
85	0xbb58300c	-0.0032987623
86	0xbb1010be	-0.0021982635
87	0xbac5f42b	-0.0015102675
88	0xba3abbfe	-0.000712335
89	0xb8ac8da5	-8.2279825e-05
90	0xbb93557b	-0.004496274
91	0xbb28cf9f	-0.0025758517
92	0xbac2c6cb	-0.001486027
93	0xb9897f5e	-0.00026225572
94	0x3a08e64d	0.0005222306
95	0xbb952d5e	-0.0045525273
96	0xbb22a250	-0.0024815984
97	0xb98d2d3f	-0.00026927327
98	0x3ac1dd10	0.0014790613
99	0x3abc05cc	0.0014344989
100	0x3b1a334b	0.0023529108
101	0x3b9a2c3a	0.0047049792
102	0x3bca3938	0.006171372
103	0x3bd350da	0.0064488472
104	0x3b99f4e3	0.004698382
105	0x3b903a2c	0.004401466
106	0x3bc54fdf	0.0060214843
107	0x3ba6d57c	0.0050913673
108	0x3ba6d8a5	0.005091744
109	0x3b810e90	0.0039385036
110	0x3ba3e070	0.0050011203
111	0x3ba50cd4	0.0050369296
112	0x3b7a937e	0.0038234885
113	0x3b91bfc5	0.0044479095
114	0x3b53e7ac	0.0032334132
115	0x3b95b97f	0.004569232
116	0x3b884ef6	0.0041598035
117	0x3b8b379e	0.0042485734
118	0x3b9f9554	0.004870096
119	0x3b9726d4	0.004612783
120	0x3b2c14d6	0.0026257536
121	0x3b41b074	0.0029554637
122	0x3b80fcfe	0.003936409
123	0x3b82ff6b	0.0039977334
124	0x3b93a898	0.004506182
125	0x3b960be2	0.0045790533
126	0x3b9387e5	0.004502284
127	0x3b715b34	0.0036828043
128	0x3b844562	0.0040365914
129	0x3b76ba72	0.003764775
130	0x3b85f06b	0.004087498
131	0x3b7803be	0.0037844027
132	0x3b53645e	0.0032255868
133	0x3b5dcd79	0.0033844395
134	0x3b5809e8	0.003296489
135	0x3b4a4704	0.0030865083
136	0x3b4ee7d7	0.0031571293
137	0x3b52fd52	0.0032194448
138	0x3b70ed58	0.0036762562
139	0x3b552d69	0.0032528287
140	0x3b1edf59	0.0024242012
141	0x3b4194ad	0.002953808
142	0x3b4f5f3b	0.0031642455
143	0x3b84edac	0.004056653
144	0x3b8759c0	0.004130572
145	0x3add7b7d	0.0016897764
146	0x3aaa9437	0.0013014142
147	0x3b0bce53	0.0021332696
148	0x3b554053	0.003253956
149	0x3b7b3cab	0.0038335721
150	0xba57559d	-0.00082143565
151	0xbab725ec	-0.0013973094
152	0xba69cb42	-0.00089185324
153	0xb9c03e38	-0.0003666745
154	0x39c3624f	0.00037266544
155	0xba8b0071	-0.001060499
156	0xbac267a3	-0.0014831912
157	0xbab9eb09	-0.0014184426
158	0xba5bdadf	-0.00083868013
159	0xb8d5e99e	-0.00010200146
160	0xbadfac0f	-0.0017064827
161	0xbae9daea	-0.0017841731
162	0xbae2940c	-0.0017286553
163	0xbaa196e9	-0.00123283
164	0xb926a6fd	-0.00015893202
165	0xbb3f358f	-0.002917621
166	0xbb30bd2a	-0.002696822
167	0xbb1d796d	-0.0024028674
168	0xba7c31e1	-0.00096204696
169	0x3901422f	0.00012327054
170	0xbb5c0311	-0.0033571164
171	0xbb59ab87	-0.003321381
172	0xbb199249	-0.002343314
173	0xb995d804	-0.0002858044
174	0x3a1fc3e9	0.00060945615
175	0xbb392eb4	-0.0028256597
176	0xbb61b77b	-0.0034441638
177	0xbb5e2bfa	-0.0033900724
178	0xbb2ce5c2	-0.0026382064
179	0xbb2a436e	-0.0025980133
180	0xbb767c18	-0.0037610587
181	0xbb549471	-0.003243711
182	0xbb3674c9	-0.0027840605
183	0xbae835f1	-0.0017716271
184	0xbac88f63	-0.0015301522
185	0xbb563531	-0.0032685513
186	0xbb18fc26	-0.0023343652
187	0xba675363	-0.0008824376
188	0xba50538f	-0.00079470215
189	0xba256609	-0.0006309455
190	0xbb22799e	-0.0024791728
191	0xbad0723c	-0.0015903185
192	0xba7978ca	-0.0009516595
193	0xba3be6df	-0.00071678864
194	0xba4c8820	-0.00078022666
195	0xbabca3f3	-0.0014392122
196	0xbaa1e759	-0.0012352272
197	0xba64412d	-0.0008707222
198	0xb9372ff3	-0.00017470102
199	0xba8ca402	-0.001073003

exp_avg_sq f4 [8, 1, 5, 5]
0	0x38cd839e	9.799677e-05
1	0x3908274f	0.00012984614
2	0x38da4065	0.000104070445
3	0x38bbf3ac	8.962242e-05
4	0x38b7d631	8.766016e-05
5	0x38fce07d	0.000120581106
6	0x390b59f4	0.00013289583
7	0x38b182b2	8.4643616e-05
8	0x38962145	7.158754e-05
9	0x38b1a70f	8.471135e-05
10	0x3902016d	0.00012398297
11	0x39016cb6	0.00012342897
12	0x38b1b53a	8.473774e-05
13	0x389ee778	7.5771415e-05
14	0x38ba9f82	8.898882e-05
15	0x38fc38d4	0.000120268814
16	0x3900e01e	0.00012290521
17	0x38bb51e9	8.932112e-05
18	0x3895641f	7.123523e-05
19	0x38a34750	7.785729e-05
20	0x38fc7716	0.00012038478
21	0x38f53c35	0.00011693725
22	0x389a61b3	7.36149e-05
23	0x3866d7a2	5.5037097e-05
24	0x38670df5	5.508769e-05
25	0x3829d225	4.0488452e-05
26	0x38654cb6	5.4669297e-05
27	0x38aae0a8	8.148077e-05
28	0x38e56618	0.000109385874
29	0x3904cc52	0.00012664616
30	0x3831f048	4.2423868e-05
31	0x38a06843	7.648815e-05
32	0x39021ac9	0.00012407744
33	0x391fae8c	0.00015228445
34	0x3917466d	0.00014426718
35	0x389204e6	6.962735e-05
36	0x390048d2	0.00012234159
37	0x39235662	0.00015577071
38	0x391d4c79	0.00015001175
39	0x3900acab	0.00012271355
40	0x38ebdac4	0.000112464215
41	0x3917a467	0.00014461727
42	0x390d1852	0.00013455868
43	0x38d63593	0.00010214294
44	0x38ac5508	8.2174374e-05
45	0x38f6f943	0.00011776623
46	0x38ff40fe	0.00012171453
47	0x38d094be	9.945918e-05
48	0x38a8f78c	8.0569735e-05
49	0x38a3398f	7.783167e-05
50	0x382dbcd4	4.1422274e-05
51	0x382085fe	3.8271763e-05
52	0x3850e2c1	4.9802245e-05
53	0x38c73f43	9.500843e-05
54	0x3902169e	0.00012406192
55	0x38470e61	4.745869e-05
56	0x388d9e91	6.752939e-05
57	0x38d5e8ab	0.00010199969
58	0x3924c1dd	0.00015712478
59	0x393405bc	0.00017168274
60	0x3891612e	6.93224e-05
61	0x3902a4b0	0.00012459117
62	0x39289aa7	0.00016079341
63	0x3935551a	0.00017293208
64	0x39225176	0.0001547987
65	0x38ebf5d0	0.000112514594
66	0x3916a68b	0.00014367157
67	0x39187192	0.00014538158
68	0x3913d8ac	0.00014099729
69	0x390602c6	0.00012780269
70	0x38f26480	0.00011558179
71	0x38f5eb82	0.00011726377
72	0x38d05edc	9.935882e-05
73	0x38d5555e	0.00010172532
74	0x38de132f	0.00010589358
75	0x38a842ad	8.0232836e-05
76	0x38fd271c	0.00012071265
77	0x38ee29ec	0.00011356533
78	0x3888eacc	6.52872e-05
79	0x383c9acd	4.4966862e-05
80	0x38b1d31e	8.479341e-05
81	0x390036b2	0.00012227407
82	0x38dd038c	0.00010538762
83	0x38824b58	6.212917e-05
84	0x3869460f	5.5616776e-05
85	0x38b2bde7	8.5230735e-05
86	0x38f119e9	0.00011496602
87	0x38d6da7c	0.00010245011
88	0x38983f10	7.259671e-05
89	0x388aa923	6.611857e-05
90	0x38ad2bcb	8.25744e-05
91	0x38db877e	0.00010467971
92	0x38bd2515	9.019129e-05
93	0x3880e54c	6.1462255e-05
94	0x38527f60	5.018653e-05
95	0x389c9637	7.466639e-05
96	0x38a9d784	8.098691e-05
97	0x387f18a6	6.0819693e-05
98	0x382385c2	3.89868e-05
99	0x380f289a	3.413167e-05
100	0x39bfff87	0.00036620742
101	0x3a16afca	0.00057482405
102	0x3a3623bb	0.0006948073
103	0x3a4f74b6	0.00079138146
104	0x3a59e61c	0.0008312182
105	0x39e73124	0.00044096366
106	0x3a14719b	0.00056626805
107	0x3a25179b	0.0006297768
108	0x3a4cb3f6	0.00078087987
109	0x3a5397ce	0.0008071632
110	0x39c6564f	0.00037829808
111	0x39c1f4b1	0.00036994138
112	0x39d62568	0.0004084513
113	0x3a0b2105	0.00053073495
114	0x3a1d9118	0.00060106954
115	0x3983102d	0.0002499832
116	0x3947bb28	0.0001904784
117	0x395d5ada	0.00021110047
118	0x39923034	0.00027883204
119	0x39ce2539	0.00039319115
120	0x392ff163	0.00016779224
121	0x3907b775	0.00012942946
122	0x3916b98f	0.0001437424
123	0x3953c838	0.00020197115
124	0x39b85add	0.00035162913
125	0x38952928	7.1125396e-05
126	0x38b2163d	8.4918436e-05
127	0x389fbaaa	7.61648e-05
128	0x3889e674	6.575594e-05
129	0x3856ffd1	5.1259824e-05
130	0x388db6e3	6.757469e-05
131	0x3888225f	6.4913875e-05
132	0x388d6ea8	6.744015e-05
133	0x3884fc95	6.3412976e-05
134	0x387d79ac	6.0433216e-05
135	0x38471d03	4.7472317e-05
136	0x386695e6	5.4975877e-05
137	0x3895f4d5	7.150477e-05
138	0x38a13be6	7.688235e-05
139	0x38ab7025	8.174804e-05
140	0x3841fc50	4.624977e-05
141	0x387bf553	6.007154e-05
142	0x388fd2a4	6.858006e-05
143	0x38a45d94	7.83756e-05
144	0x389aa10b	7.373289e-05
145	0x384e1ce3	4.914113e-05
146	0x38784147	5.9188602e-05
147	0x388ffa20	6.865361e-05
148	0x388e7619	6.793085e-05
149	0x38743820	5.8226404e-05
150	0x3800d495	3.071556e-05
151	0x3836076a	4.3399086e-05
152	0x38595cd9	5.1823303e-05
153	0x383feaa2	4.5756467e-05
154	0x381cb10e	3.7358193e-05
155	0x38096021	3.2752872e-05
156	0x383d52c7	4.5138204e-05
157	0x38536dd9	5.0408624e-05
158	0x383df48e	4.528887e-05
159	0x3813a79d	3.5203633e-05
160	0x3810d3da	3.4529578e-05
161	0x383a0a3f	4.4355398e-05
162	0x384140f4	4.6075278e-05
163	0x3830a8c3	4.211884e-05
164	0x3801fb85	3.0990243e-05
165	0x381bd492	3.715285e-05
166	0x382992b8	4.0429382e-05
167	0x382f0223	4.172524e-05
168	0x38244cac	3.9172053e-05
169	0x37e935fa	2.78009e-05
170	0x381c8550	3.7317455e-05
171	0x382c26dc	4.1044186e-05
172	0x3837753d	4.3739787e-05
173	0x382284c0	3.8747443e-05
174	0x38007c59	3.0633386e-05
175	0x38faedb4	0.000119652046
176	0x3919beae	0.00014662251
177	0x390f3165	0.00013655944
178	0x38db73bc	0.00010464291
179	0x38aeb129	8.329965e-05
180	0x39195f6a	0.00014626762
181	0x39293cad	0.000161397
182	0x38f9f560	0.0001191895
183	0x38967ff8	7.1763934e-05
184	0x384dd2f6	4.907228e-05
185	0x39277ede	0.00015973623
186	0x39089838	0.00013026677
187	0x38874faf	6.452144e-05
188	0x38037d93	3.1349784e-05
189	0x37ddc3d5	2.6436444e-05
190	0x391ae038	0.00014770112
191	0x38b82da3	8.782304e-05
192	0x380e5278	3.3932243e-05
193	0x379115d4	1.7295511e-05
194	0x37b3931f	2.1406971e-05
195	0x38fd052d	0.00012064944
196	0x388b63d5	6.646632e-05
197	0x37f1b4d3	2.8813642e-05
198	0x37c3ab9b	2.3325721e-05
199	0x382034ba	3.8196078e-05

exp_avg f4 [8]
0	0xba1632fc	-0.0005729643
1	0x3b56f9c7	0.0032802687
2	0x3c0b7f8b	0.008514295
3	0xbb4352b5	-0.0029803936
4	0x3c01dd69	0.007926323
5	0x3c11ded7	0.008903227
6	0x3a619c4c	0.0008606359
7	0xbc23a2c3	-0.009987536

exp_avg_sq f4 [8]
0	0x3996a186	0.00028730574
1	0x3993b2b9	0.00028171184
2	0x39ecc26b	0.0004515828
3	0x38decf21	0.00010624366
4	0x3b5aadef	0.0033367833
5	0x3986d408	0.00025716447
6	0x38bb3e3e	8.9284484e-05
7	0x3a32566a	0.0006803038
